dev/hyperparameter_tuning/trials/tuning_250128_2030/trials_logs/trial_1/trial_1_model.pth (torch, 932400 bytes, 18 tensors)

convs.0.nn.0.weight f4 [128, 1]
000000 dc 28 a7 be a0 f6 01 3f 34 81 b6 3e 80 80 f0 3e
       -0.3264836 0.50766945 0.3564545 0.46973038
000010 3a 9f 25 bf 40 39 9a bc 90 79 29 3e 18 95 b6 3e
       -0.64696085 -0.018826127 0.16550279 0.35660625
000020 a4 42 83 3e 48 1c 53 3f 66 30 2e bf f8 b9 ff be
       0.2563678 0.8246503 -0.680426 -0.4994657
000030 24 3f ad be 48 e7 1c 3e 1c b7 d3 3e 12 55 52 bf
       -0.33837235 0.15322602 0.4135064 -0.82161057
000040 e8 ec c4 be 88 bd e0 3e 64 6b 01 3f a0 ce 64 bf
       -0.38461995 0.438946 0.5055449 -0.89377785
000050 96 34 27 bf 38 c0 4c 3e 8c fd 82 be 86 60 72 bf
       -0.65314615 0.199952 -0.25584066 -0.94678533
000060 ae 74 32 bf d0 ed b1 3e 32 9d 23 3f 2c 47 4f bf
       -0.6970929 0.3475175 0.63911736 -0.80967975
000070 94 ad f4 3e 1e 65 32 3f 64 68 83 3e 50 20 56 bf
       0.4778868 0.6968554 0.2566558 -0.83643055
000080 a0 39 f3 bd 0c d6 38 bf a0 e4 fa 3d 14 89 7a bf
       -0.118762255 -0.7220161 0.12250638 -0.97865415
000090 c4 ab 43 bf 3b cf b5 3e aa 37 09 bf 76 7e 20 bf
       -0.7643397 0.35509667 -0.5360056 -0.62692964
0000a0 0c ac 0f bf b8 4d 7b bf c0 16 f2 3e 4e 37 30 3f
       -0.561219 -0.98165464 0.47282982 0.6883439
0000b0 48 8e cf 3e 56 dd 66 bf a0 d0 ab be 9c 41 2a bf
       0.4053824 -0.9018148 -0.33557606 -0.6650636
0000c0 04 73 6f bf 8e ef 55 3f 64 bc 0b 3f c6 91 0c 3f
       -0.93534875 0.83568656 0.54584336 0.5490993
0000d0 58 48 a3 3e e4 13 65 3f 0c ff 5c 3f c4 f9 3d bf
       0.3189113 0.89483476 0.8632667 -0.7420924
0000e0 96 52 6c 3f 26 90 76 3f 04 33 8b 3e c8 92 d6 3e
       0.92313516 0.96313703 0.2718736 0.4190886
0000f0 10 d0 28 3f a0 10 5c 3f ea fd 11 bf 6a 19 77 bf
       0.6594248 0.8596287 -0.5702807 -0.96523154
000100 f0 f0 e0 3d 60 90 1c 3e 58 e0 8e be 68 11 43 be
       0.10983455 0.1528945 -0.27905536 -0.19049609
000110 80 50 05 bf 52 90 77 3f e0 00 51 3d 54 00 dd 3e
       -0.5207596 0.9670459 0.051026225 0.43164313
000120 a0 73 b6 be 98 81 7d bf 10 20 c1 3d f2 3e 64 bf
       -0.3563509 -0.9902587 0.094299436 -0.89158547
000130 20 69 40 3f 9e df 62 bf cc cb 94 be c2 f5 4b 3f
       0.7516041 -0.8862246 -0.29061735 0.7967187
000140 4c a1 22 bf 60 6c ac be 10 f0 98 bd 60 e7 61 3d
       -0.6352737 -0.33676434 -0.07467663 0.055152297
000150 26 3f 43 3f 96 2c 2a 3f c8 16 b2 3e a4 b5 8c 3e
       0.7626823 0.6647428 0.34783006 0.2748233
000160 6a 14 18 3f c0 c9 f9 be f4 ce f2 be 04 85 53 bf
       0.5940615 -0.48786736 -0.47423518 -0.8262484
000170 00 57 43 bd 7e 42 3f 3f 80 5f 31 3f a0 ae 6a be
       -0.04769039 0.74710834 0.69286346 -0.22918177
000180 50 22 95 3e d6 f1 52 3f e0 2e 3e bf ee 9f 40 bf
       0.2912774 0.8240026 -0.74290276 -0.75244033
000190 c2 f2 38 bf e8 c9 49 3e 20 37 bb 3d ba 89 02 3f
       -0.7224542 0.19705927 0.09141374 0.50991404
0001a0 64 b3 26 bf 88 ea 61 3e 80 1a 4d bc e0 75 ef bd
       -0.6511748 0.22062123 -0.012518525 -0.11692405
0001b0 da 26 7b bf 74 b6 cb 3e 2c a2 62 3f 8c be 6d bf
       -0.9810616 0.39787638 0.88528705 -0.92868876
0001c0 cc d9 7b bf 24 e8 60 3f ae f8 7e bf 88 16 ab 3e
       -0.98379207 0.8785422 -0.99598205 0.33415627
0001d0 2c 70 f0 3e 8c 82 40 bf dc d1 de be d0 f8 1c 3e
       0.4696058 -0.751992 -0.43519485 0.1532929
0001e0 08 4e 5d be e8 6c a8 be 9c b8 ee be 7c 8a 12 bf
       -0.21611798 -0.3289559 -0.4662522 -0.5724256
0001f0 40 27 2c be d8 d3 55 bf a4 2c 20 3f 2c 2e 7c 3f
       -0.16811848 -0.8352637 0.62568116 0.9850795

convs.0.nn.0.bias f4 [128]
000000 36 f2 74 3f ba 3a 50 3f 16 c8 05 bf 0c 15 f4 3e
       0.95682085 0.8133961 -0.5225843 0.47672307
000010 cc 44 f6 be 90 62 1e bf 98 a7 90 be 28 f0 7a 3f
       -0.48099363 -0.61869144 -0.28252864 0.980227
000020 00 48 91 bc 7e f5 1d 3f 08 48 df be 24 6c 10 3f
       -0.017734528 0.61702716 -0.43609643 0.5641501
000030 a8 75 67 bf 70 96 a2 bd fc 7f 19 3f 78 34 2d bf
       -0.90413904 -0.0793885 0.59960914 -0.67658186
000040 40 3d 18 3e 84 b0 fb be 38 5a 55 3e d2 f1 61 bf
       0.14867115 -0.49158108 0.20835197 -0.88259614
000050 72 bd 40 3f 7c 74 63 3f 00 fa 9c 3d 40 25 69 be
       0.7528907 0.88849616 0.07664871 -0.22768116
000060 24 10 fd 3e 2f d3 a4 be 84 b9 28 bf 06 7b 60 3f
       0.49426377 -0.3219237 -0.65908074 0.8768772
000070 d2 48 5e bf 30 26 02 3e e4 3e 3a 3f b8 60 5e bf
       -0.86829865 0.1270988 0.72752213 -0.8686633
000080 e9 d0 42 3e bc 1f b9 be 50 49 5a be 20 65 63 be
       0.19025005 -0.36157024 -0.21317029 -0.22206545
000090 00 2e 07 bc 49 52 69 bf 84 07 e4 3e 9a 52 28 bf
       -0.008250713 -0.9114118 0.44536984 -0.6575104
0000a0 20 28 eb 3e 58 39 67 be f8 3a 86 3e bc 81 a5 3e
       0.4592905 -0.22580469 0.26216865 0.32325542
0000b0 e0 4d 8e bd e8 be 0a be 38 24 d5 3e 94 ea 98 3e
       -0.06948447 -0.13549387 0.41629195 0.2986647
0000c0 86 ff 10 3f d8 4c d3 3e 36 e5 39 bf 64 11 f9 3e
       0.566399 0.41269565 -0.72615373 0.4864608
0000d0 3c ae 92 be 66 4f 05 3f 58 53 7d 3f c0 2b 64 be
       -0.28648555 0.5207428 0.989553 -0.22282314
0000e0 8c 1b 3c bf 70 c0 10 bf 98 82 30 3e 82 bc 71 bf
       -0.73479533 -0.56543636 0.17237318 -0.94428265
0000f0 54 f9 e7 be 7c c0 c1 be d4 61 4b 3f 20 de 57 3d
       -0.4530741 -0.37842166 0.7944615 0.05270207
000100 a0 17 0c bf e0 5a 47 3f 9a cd 09 bf a8 db 08 bf
       -0.5472355 0.7787304 -0.5382935 -0.5346017
000110 a4 29 d4 be 24 0a e7 3e e0 c8 50 be 84 ab 0f bf
       -0.4143802 0.45124924 -0.20389128 -0.5612109
000120 a4 ed 22 bf 2c 17 9f 3e fc 1a c9 be 2c 05 f0 be
       -0.6364386 0.31072366 -0.392784 -0.46878946
000130 b9 7a 11 bf f0 ea 7a bf 7a e1 21 3f 92 c7 46 bf
       -0.56827885 -0.98014736 0.63234675 -0.7764827
000140 f0 32 a1 bd 54 9e 01 3f 0e 11 02 bf 22 07 1e 3f
       -0.07871044 0.50632215 -0.50807273 0.61729634
000150 20 e1 ab 3e 50 25 30 bf 1a 87 40 bf 30 c5 74 bf
       0.33570194 -0.68806934 -0.7520615 -0.95613384
000160 e4 2e 0e 3f 50 8f 04 3f 18 69 41 bf d6 56 12 bf
       0.555403 0.5178118 -0.75550985 -0.5716375
000170 08 89 58 be 60 f9 76 3f 28 67 95 be 00 2b f9 be
       -0.21146023 0.96474266 -0.29180264 -0.4866562
000180 2c 33 8d 3e f0 8f a7 3d 4c 0a 2a 3f b4 07 3f 3f
       0.27578104 0.08181751 0.6642196 0.7462113
000190 80 d4 f0 bd c4 29 aa be 80 7d ce be 9a 72 34 bf
       -0.11759281 -0.3323499 -0.40330124 -0.7048737
0001a0 12 f8 56 3f ac a2 0d 3f d4 15 4c 3f 02 a5 29 bf
       0.83972275 0.5532634 0.7972081 -0.66267407
0001b0 20 ff 15 3e a0 d8 1b 3d 92 a4 58 bf e0 95 3a bf
       0.14648104 0.038048387 -0.84626114 -0.7288494
0001c0 64 1e ef be f6 e3 13 3f 88 f2 c7 be 30 62 94 3d
       -0.46702874 0.57769716 -0.39052224 0.0724529
0001d0 72 e0 6e 3f 70 c7 52 3f c8 d3 95 3e 32 68 38 bf
       0.93311226 0.8233557 0.2926314 -0.7203399
0001e0 9c fc 34 bf 88 d3 66 3f 80 32 f1 3d 1a 12 3a 3f
       -0.7069795 0.9016652 0.1177721 0.7268387
0001f0 c4 d2 38 bf 66 24 6d bf bc 3b 8a be 89 34 65 be
       -0.721966 -0.92633665 -0.269987 -0.22383322

convs.0.nn.2.weight f4 [128, 128]
000000 1e f9 aa bb 9c 48 f1 ba d9 be 21 bd a4 2d 5d bd
       -0.0052176854 -0.001840848 -0.039488647 -0.053998604
000010 05 e5 08 3d b5 92 30 bd 15 c7 f2 ba 08 4b 7a 3d
       0.033421535 -0.04310866 -0.0018522466 0.06110671
000020 43 41 d4 ba ab 9c 6c bc e3 c3 53 3c 84 ef e3 bb
       -0.0016193766 -0.014441649 0.012925121 -0.0069560427
000030 ff 6b 92 bd e7 a8 5c bd 0c 4b 88 bd fa a2 a6 bc
       -0.07149505 -0.053872015 -0.06654939 -0.020341385
000040 9b 72 8d bb da 49 bd 3b 4c 02 0b bd d8 48 20 bd
       -0.0043166406 0.005776626 -0.033937737 -0.03913197
000050 1a 32 29 bd b7 1b 62 bc fd f7 16 3d b9 31 89 3d
       -0.041307546 -0.013800553 0.036857594 0.06698937
000060 ad 63 a9 bd 80 1f a3 bd 1b a5 7d bd 66 28 4f 3d
       -0.08270965 -0.079649925 -0.061925035 0.050575636
000070 d4 01 6f bd eb af c5 bc a1 aa 03 3d fd 90 6e bc
       -0.058351353 -0.024131736 0.032145146 -0.014560935
000080 2f c2 05 bc d1 fa 69 3d e0 74 76 3d ec fb 7c 3d
       -0.008163973 0.057123963 0.060170054 0.06176369
000090 13 36 98 3d a9 46 22 3d 72 87 a7 3d da 48 2d 3d
       0.07432189 0.039618168 0.08180131 0.042305805
0000a0 bd cd 88 bd 60 2d b7 bb 5a 27 af bd b4 65 cc 3c
       -0.066798665 -0.005590126 -0.085524276 0.02495084
0000b0 23 0a 14 3d 72 b0 78 bd 6a 30 5e 3c 28 36 2e bc
       0.03614248 -0.060715146 0.0135613475 -0.010633029
0000c0 5b 54 9e bd a3 2d 6e 3b ed a5 61 bd 70 8c 86 3d
       -0.07730933 0.003634312 -0.05508988 0.06569755
0000d0 c1 34 1a bc b5 2f 09 bd df fc 87 bd a6 a2 1f bd
       -0.009411992 -0.033492763 -0.06640028 -0.038973473
0000e0 dd cd 16 bc 7f 0f 0a bd 66 81 b5 bc 9d d0 90 3a
       -0.009204355 -0.033706184 -0.022156429 0.00110485
0000f0 f3 0a b7 3c 9f db 0d 3d 8f ff 9e 3d 36 50 17 bd
       0.022344088 0.034633275 0.07763588 -0.03694173
000100 43 8c 00 3c ba 5e 92 3d 61 8b 24 3d 3f 86 0a bd
       0.007845941 0.07146974 0.040171985 -0.033819433
000110 5e c9 e8 bc 2e df 31 3d 6a 02 a5 3d ff eb 09 bd
       -0.028416332 0.04342573 0.08057101 -0.03367233
000120 89 5a 04 3d 12 00 85 bd d0 da cd 3c da 10 17 3d
       0.032312904 -0.06494154 0.025128752 0.036881305
000130 d9 ff 59 3d 9f a7 9c bd cd 8c 5f bd 1a b4 07 bd
       0.05322251 -0.07649159 -0.054577637 -0.033130743
000140 47 bb 1d 3d 19 48 4f 3d 33 f0 0e bc 3f 18 b8 3c
       0.03850868 0.050605867 -0.00872426 0.022472499
000150 59 e4 e8 3c f8 6e 7b 3d 11 f0 87 3d 2a 47 bb 3c
       0.028429197 0.061385125 0.06637586 0.022861082
000160 fd 0b 15 bd 7b 30 0d bd e1 96 88 bd a4 38 de 3c
       -0.036388386 -0.034470063 -0.06669403 0.027126618
000170 41 39 bd 3c c9 1f 1a 3d e8 2c 2e bd b0 21 e5 ba
       0.02309859 0.03762797 -0.042523295 -0.0017481353
000180 58 09 d7 bc 3b a4 a3 bd 6b 2e a7 3d 95 ae 60 3c
       -0.026249573 -0.07990309 0.081631504 0.013713499
000190 b4 fe 97 bd bc 45 80 3c 4e d4 a2 3d 97 72 80 3d
       -0.07421628 0.015658252 0.0795065 0.06271856
0001a0 4c 43 89 3d 79 01 a0 bd 33 7f 9a 3c 95 ea 88 bd
       0.06702289 -0.07812781 0.018859481 -0.06685368
0001b0 d6 e0 b3 bd ff 69 07 bd 6d 6b 0b 3d f0 08 46 bd
       -0.087831184 -0.03306007 0.034037996 -0.048348367
0001c0 77 a7 30 3d 09 ab 67 3d 25 ca ab bd 5b a6 e6 bc
       0.043128457 0.056559596 -0.083881654 -0.028155496
0001d0 3f 95 93 bc 8c 2b 88 3c 72 ea 38 3d 9a fa 35 3d
       -0.018015502 0.016622327 0.04514546 0.044428445
0001e0 51 19 08 bc c6 41 91 bd a0 60 c2 ba 99 eb a0 3c
       -0.008306817 -0.070926234 -0.0014829822 0.019643592
0001f0 78 2a 22 3d 34 0c 8c 3d 0d ef 82 bc 5d f4 83 3d
       0.039591283 0.06838265 -0.015983129 0.06443093
000200 35 65 ce 3c 39 1c 3a bd 22 c3 9e bd 79 ae dc bb
       0.025194744 -0.04543707 -0.077520624 -0.006734666
000210 d9 bf ab 3d 36 72 ac 3d ca 07 a9 bb 6c e1 cc bc
       0.083862014 0.084202215 -0.005158399 -0.025009833
000220 ad c2 67 bd a9 b5 87 bb 40 c8 64 bd 85 36 60 3d
       -0.05658214 -0.0041415286 -0.055855036 0.054739494
000230 d4 a2 0c bd 67 58 d5 bc 4b f9 c7 bc 8c 3a 00 bc
       -0.034334973 -0.02604313 -0.024410864 -0.007826459
000240 74 24 88 3d 9e 5d 58 bd 57 d2 98 bd 57 d9 32 bc
       0.06647578 -0.052823655 -0.07461994 -0.010916076
000250 0d 63 80 bd e0 ae 55 bd fd 4c 59 3d ce 26 d2 bb
       -0.062688924 -0.052168727 0.053051937 -0.0064133173
000260 2c 40 87 ba d1 a5 78 3d d3 11 b3 3d 94 d0 c9 3b
       -0.0010318807 0.06070501 0.08743634 0.0061588977
000270 68 de 7a bc 39 de 5e 3d 1a d9 d7 bc 2f a8 d2 3c
       -0.015311815 0.054411147 -0.02634864 0.025714962
000280 c1 84 94 bd ce ec 50 bd 91 fb ab bd 74 9b 39 bd
       -0.07251883 -0.051007085 -0.08397592 -0.045314267
000290 d7 8e 5a 3d ec 3c 86 3d a7 04 54 bd 3e a0 4f bd
       0.05335888 0.06554589 -0.05176225 -0.05068993
0002a0 51 30 39 3d 94 00 06 3d bf 54 36 bd 09 da de bc
       0.045212094 0.032715395 -0.044514414 -0.027203577
0002b0 39 55 a7 bd 9d a9 25 3c ce 49 5b bd 1d ec aa bb
       -0.08170552 0.01011124 -0.053537183 -0.005216135
0002c0 63 13 4f 3d 77 9f cc bc 03 55 9e 3d ca d4 75 bd
       0.050555598 -0.024978383 0.077310584 -0.060017385
0002d0 b2 34 3b bc 04 21 b0 3c ad a5 ab 3d d8 a0 db bc
       -0.011426138 0.021500118 0.083812095 -0.026810095
0002e0 13 9e 50 bd 6a 0b 82 bd 8a 8d 40 bd 9f 25 c5 bc
       -0.050932 -0.06349833 -0.047009982 -0.02406579
0002f0 a5 f8 6c 3d 81 51 48 3c 5a 4f ac 3d 80 ab 85 bd
       0.057854313 0.012226463 0.084135726 -0.06526852
000300 29 d9 8b 3d 18 dd 90 bd 43 8c 0b bd 2c 6b 35 3d
       0.068285294 -0.0707342 -0.03406931 0.04429166
000310 4f 0c a7 bd 41 b4 b0 bd a3 a5 6c bd 28 47 1f 3d
       -0.081566446 -0.08628131 -0.05777515 0.03888622
000320 ca e7 d8 3c a4 24 6c 3c a3 e8 0f 3d a0 14 9e 3c
       0.026477713 0.014413033 0.03513397 0.019296944
000330 11 3d a8 3d fb 7a 9d bd af 7c 8f b9 36 42 01 3c
       0.082147725 -0.07689472 -0.00027367982 0.007889321
000340 d8 9c b1 3d 09 7f 6b bc 22 26 71 3d 0d 65 76 3d
       0.08672494 -0.014373549 0.058874257 0.060154963
000350 d4 b6 c6 bc 65 17 1f 3d b4 8c 24 bc 05 34 6f bd
       -0.024257101 0.03884067 -0.010043312 -0.05839922
000360 53 d7 1c bd 65 d7 5c bc 2d 28 3d bd 3d aa 04 bd
       -0.038291287 -0.013479088 -0.046180893 -0.032388914
000370 97 ff b4 bd 0e 0d f5 3c cb 8a 61 3d 15 f8 99 3d
       -0.088378124 0.029913452 0.055064004 0.07518021
000380 c6 a8 fd 3c 61 2a 03 bd 81 4c 1b bd 88 2e f9 3c
       0.030964267 -0.032022838 -0.037914757 0.030417696
000390 b8 58 b9 3c b3 ba 8f bd 8f 4b 66 bc be 39 1d bd
       0.022625312 -0.07018032 -0.0140561005 -0.038385145
0003a0 e6 55 95 bd e0 70 82 3d cf d4 ae 3d 74 93 8d bd
       -0.072917745 0.063691854 0.08536684 -0.0691289
0003b0 63 2e 90 3d d9 f3 cd bc 4a a4 95 3d fb 21 4d 3d
       0.070400976 -0.02514069 0.07306726 0.050081234
0003c0 44 01 53 3d f5 f9 cf 3c 63 e6 19 bd 88 f3 2f bd
       0.05151488 0.025387743 -0.03757323 -0.04295686
0003d0 cf a0 18 bd f9 bf f9 bb bf d3 78 3d a2 76 10 3d
       -0.037262734 -0.007621762 0.06074881 0.035269387
0003e0 17 14 ab bd eb 51 86 3c 51 99 8c bc 6c 92 a3 3c
       -0.08353441 0.016396483 -0.01716295 0.01996728
0003f0 61 8d b0 bc 2f b3 42 bd 78 ab 83 bd 3e 39 4a bd
       -0.02155179 -0.047534164 -0.064291894 -0.049370997

convs.0.nn.2.bias f4 [128]
000000 39 98 79 bd ff 4a 49 bd 60 76 72 bc 8b f8 8c 3c
       -0.060936186 -0.049143787 -0.014798731 0.017208358
000010 6c 96 16 3d dc 7a 7e 3d c7 3c 2c 3c 37 0f 22 3d
       0.036764547 0.062128887 0.010512537 0.03956529
000020 5e f7 5f 3d 3f ca 81 3d bf 3d 80 3d c1 14 45 3d
       0.054679267 0.063374035 0.06261777 0.048115496
000030 9f 3d 04 3d 36 27 74 3d 20 e8 91 bb a6 6e 2f bd
       0.03228533 0.059607707 -0.0044527203 -0.042830132
000040 b8 8b b1 bc 7a 40 8a 3d 82 6f 10 bd 8d 7f 60 3d
       -0.021673068 0.06750579 -0.035262592 0.054809142
000050 80 7b 2f bd 83 63 d0 3c 1b 3c eb 3c 00 95 59 bd
       -0.04284239 0.025438076 0.028715184 -0.053120613
000060 04 b9 f9 bc 45 d5 3a 3d 50 2c d1 bc 42 37 2b bb
       -0.03048373 0.045613546 -0.025533825 -0.0026125466
000070 3e 71 25 3d 89 1d 13 bd 1c ca cd bb e4 3c 9e 3d
       0.0403912 -0.03591684 -0.006280197 0.07726458
000080 7c 88 9a bd ac b0 ef bc f4 73 ff 3c d1 6b f3 bc
       -0.075455636 -0.029259048 0.03118322 -0.029714497
000090 4c da 00 bd 00 31 8d bb d9 49 8c 3d cc 33 93 bd
       -0.031458184 -0.00430882 0.06850023 -0.07187614
0000a0 d3 f3 86 3c 41 49 7a 3d ea 3b 97 bd c6 62 96 3d
       0.016473686 0.061105017 -0.073844746 0.07343058
0000b0 6e af e3 3b 1a cc 99 bc 3f 05 8b bd 1e 1f 06 3d
       0.006948403 -0.018774081 -0.0678811 0.03274452
0000c0 a8 2d 9c 3d 8a 4c cf bc d7 6b ef bc da d0 bf bc
       0.07625896 -0.025305051 -0.029226227 -0.023415018
0000d0 a4 55 7c bd 9b 7a d0 bc 4c 33 35 3d c7 38 59 3c
       -0.06160511 -0.025449088 0.044238374 0.013258166
0000e0 ea a5 ff bb d1 cd d5 bc 78 23 b4 bc ff 9a 82 bd
       -0.007801761 -0.026099117 -0.021989569 -0.063772194
0000f0 55 48 ae bd 4f 64 0d bd 77 f8 6a 3c 1b 90 20 bd
       -0.0850989 -0.03451949 0.014341465 -0.03919993
000100 5d ab b3 3d 44 45 84 bc 0a 9f a3 3d 5e 29 8f 3d
       0.08772919 -0.01614631 0.07989319 0.06990312
000110 8c 6d 83 bd be 4f b0 bd 53 76 30 3d 63 71 03 bd
       -0.06417379 -0.086089596 0.043081593 -0.032090556
000120 83 43 21 bd a6 3a 28 bd 1b dd a3 3a 32 40 93 bd
       -0.039371025 -0.041071557 0.0012501808 -0.07189979
000130 c5 3d a9 3d e0 f9 a1 3d 76 0e 06 bc af d0 18 3a
       0.08263735 0.07908988 -0.008182159 0.0005829436
000140 00 87 96 bd ea 84 91 bd 7e 7d 63 bb 93 20 94 bd
       -0.07349968 -0.071054295 -0.003471225 -0.072327755
000150 56 84 7b bd 7d f6 23 bd eb 0c 11 3c 77 fd 22 bd
       -0.061405502 -0.04002999 0.008853178 -0.039792504
000160 1e ad 6a 3d b4 3c b0 3d ae 22 c0 bc 74 05 91 3d
       0.057294004 0.08605328 -0.023454037 0.07081118
000170 95 ed 8a bd 82 7e 08 3d 81 3b 7b bd 28 64 d0 3c
       -0.067835964 0.033323772 -0.061336044 0.025438383
000180 8f b2 d0 3c 5d 97 8e bc 13 70 d3 bc 34 bd 9a 3d
       0.025475768 -0.01740616 -0.025810277 0.07555619
000190 5e 71 2f bd 1d 56 72 3d 69 79 af bd 4f f2 83 bd
       -0.042832725 0.059164155 -0.08568079 -0.06442701
0001a0 cb de 84 bd fa c8 9c 3d 15 05 8f bc d8 c3 95 3d
       -0.06487807 0.07655521 -0.017458478 0.07312745
0001b0 5c 68 71 3d 7b cf 8d 3c 98 15 38 3d 4f a4 3c 3d
       0.058937415 0.017310848 0.04494247 0.046055134
0001c0 db 94 f2 bb d0 3b a7 bd a6 14 b4 bd d8 6b 8d bd
       -0.007402999 -0.08165705 -0.08793001 -0.06905335
0001d0 11 ea 54 bd 76 b2 0e 3d 31 1b a6 bd 29 2c 0f 3d
       -0.051981036 0.034838162 -0.08110655 0.034954224
0001e0 6e 57 6d 3d 6e d8 2d bc 12 ec ae bd 82 ab 3d bd
       0.057944708 -0.010610683 -0.085411206 -0.04630614
0001f0 20 fc 46 bd 60 e2 78 bd f3 b7 4e 3d af e9 7a 3c
       -0.04858029 -0.060762763 0.050468396 0.015314504

convs.1.nn.0.weight f4 [128, 128]
000000 97 40 31 3d a1 46 2b 3d a3 9e b0 3d 67 b1 01 3d
       0.04327449 0.041815404 0.086240076 0.031663325
000010 b5 96 0e 3c 33 4c 87 bd 61 01 09 3c 3f 2a 05 3d
       0.008702924 -0.06606331 0.008362145 0.032510992
000020 e0 4d a1 3d 90 8c 81 bd 7f b9 2e 3d b6 c4 93 3c
       0.078761816 -0.06325638 0.04265737 0.018038135
000030 c0 c0 46 bc 7d 32 27 3d 6b 8e a6 bd 6b 6d 8c 3d
       -0.012130916 0.040819634 -0.08132633 0.06856807
000040 8e 56 46 3c 84 8c 8a bd 68 2e a7 bd 5d fc 81 bd
       0.012105597 -0.067650825 -0.08163148 -0.063469626
000050 c3 4a 92 bc db 77 4a 3d d4 40 83 3c aa 23 59 3d
       -0.017857915 0.04943071 0.016022123 0.053012528
000060 e9 62 1f 3d 48 b0 a5 3d 23 2b 21 bd a9 b2 6d 3d
       0.038912687 0.080902636 -0.03934778 0.05803171
000070 8b 0b 59 3d 53 f9 78 bc 59 63 4a bc cb 5c 16 bd
       0.052989524 -0.015196162 -0.012352788 -0.036709588
000080 f5 ed 6d bc 46 80 50 3d 9c da 8a ba 08 65 89 3d
       -0.014522065 0.05090358 -0.0010593715 0.06708723
000090 43 e6 6c bd 41 fc 25 bc 30 09 03 bc 2b 2f f6 3c
       -0.057836782 -0.010130943 -0.007997796 0.030051788
0000a0 f9 1c de 3c 3b ce 48 3d 21 a7 9d 3d e7 61 fe 3c
       0.027113425 0.0490248 0.07697893 0.031052543
0000b0 96 58 90 3d e4 e3 43 bd 9d d7 48 bd 5a 3e 1d 3c
       0.070481464 -0.047824755 -0.04903375 0.009597385
0000c0 f5 e5 9f 3d 1f 37 48 3d e9 52 86 bc 91 47 8f bd
       0.07807533 0.048880693 -0.016396957 -0.06996072
0000d0 29 d7 82 3d 15 dc b3 3d 2c 75 ed bb 19 6a 7d bd
       0.06388695 0.08782212 -0.007246634 -0.06186876
0000e0 28 c2 5b 3d 7c f7 92 bd 9b 72 48 3c 94 77 92 3d
       0.05365196 -0.0717611 0.012234355 0.07151714
0000f0 af 84 90 bd c4 cd 5d bd 66 05 21 bd 0e 3b 48 3d
       -0.070565574 -0.05415131 -0.03931179 0.048884444
000100 4c 80 76 bd 86 9d a0 3d 6a f1 34 bd 55 60 00 3c
       -0.060180947 0.07842545 -0.044175543 0.007835467
000110 d0 91 8e 3d bb 75 87 3c a6 26 33 bd 5e 04 5c 3d
       0.06961405 0.01653563 -0.04373803 0.053715102
000120 c8 d4 81 3c d3 ad 9e bc 3c a8 a3 3d ff 50 1e bd
       0.015848532 -0.019369995 0.079910725 -0.038651463
000130 0a 75 6d 3d c6 52 82 bd 63 68 a3 3d 1e ea 61 3d
       0.057972945 -0.06363444 0.079788946 0.055154912
000140 9e bb 84 3d 69 b3 71 bd 2a 00 33 bd 68 c0 fb bc
       0.06481098 -0.05900899 -0.04370133 -0.030731395
000150 a5 ff 67 3d db 49 91 bd cd 9f 93 3d 7c 6f 47 3d
       0.056640286 -0.07094165 0.07208214 0.048690304
000160 74 73 94 bc da 86 5c 3d 47 46 5d 3d a7 84 86 3c
       -0.018121459 0.053839542 0.0540221 0.016420675
000170 bf 85 8c 3c df b4 77 bd 03 d6 6b 3d a3 e8 20 bd
       0.017153619 -0.060475226 0.057577144 -0.03928436
000180 f1 89 11 bc 25 4b fa 3c bb 51 9a bd f8 84 b0 3d
       -0.008882985 0.03055341 -0.0753512 0.08619112
000190 16 d0 9c 3d 46 9e c7 3c 2f c5 4c bd 6a d6 7b 3d
       0.07656877 0.024367463 -0.049992736 0.061483778
0001a0 4a 0a ae 3c 06 2b a2 3d 17 39 9b bd 4f ed 7f 3d
       0.02124514 0.07918362 -0.075792484 0.062482174
0001b0 7d 40 31 bd c8 0f b2 bd b0 28 27 bc bc 46 97 bc
       -0.04327439 -0.08694416 -0.010202572 -0.018466346
0001c0 ce dc c8 3a 8e e4 47 3d e9 58 ae 3d ee 0a 3b 3c
       0.0015324594 0.04880195 0.08513052 0.01141618
0001d0 1d 77 5b bd 08 b4 a4 bd b2 fe 5c 3d d9 bf 74 3d
       -0.053580392 -0.08042151 0.053953834 0.059753273
0001e0 c4 55 38 3d bd 66 9b bd e7 8d 60 bd fa dc 36 bd
       0.045003667 -0.07587955 -0.05482283 -0.044644333
0001f0 64 02 9b bb fe ff 83 3c dc a1 44 bd 51 cc 77 3c
       -0.0047305096 0.016113278 -0.048005924 0.015124396
000200 ee ef a7 3d 7d b1 6f 3d 6f 86 96 bd 4a 86 1b 3d
       0.0820006 0.058518875 -0.0734986 0.037969865
000210 56 9e 90 bd af 68 af 3c d0 ac a7 3d 0e 47 8d 3c
       -0.0706145 0.021412222 0.08187258 0.017245796
000220 4c bf ac 3d 42 8d 2e bd 7d 48 48 bc 95 c3 95 3d
       0.084349245 -0.042615183 -0.012224314 0.07312695
000230 1b 76 66 3d 92 9b 01 3a 59 7b 15 bd 76 6b 99 bd
       0.056264978 0.0004944141 -0.036494587 -0.074912
000240 f4 ef bd 3c d3 1b 82 bc 56 bd 85 3d 98 d3 ed bc
       0.023185708 -0.015882408 0.065302536 -0.02903156
000250 0d 78 07 3c 69 9a 0c bd f2 d1 f4 3c de 14 84 3d
       0.008268368 -0.034326945 0.029885266 0.064492926
000260 c5 8c dd 3b fb 40 0c bd 09 08 56 3d 2c 55 1c bd
       0.006761166 -0.034241658 0.052253757 -0.038167164
000270 7e c9 a3 3d aa fc 8c bd 06 65 8e 3d b9 eb 8f bd
       0.07997416 -0.06884129 0.069528624 -0.070273824
000280 96 49 32 3d 63 0d 83 bc bc 74 3e 3c fe 4a f1 bc
       0.04352721 -0.015997594 0.011624511 -0.029454704
000290 e6 05 05 bd 04 c1 9f bd d1 12 26 bd 7a d2 2c bc
       -0.03247633 -0.07800487 -0.04054529 -0.010548228
0002a0 79 a9 35 bd 41 3e 34 3a 6c 32 a7 bd a2 2e 6c bd
       -0.044351075 0.00068757316 -0.08163914 -0.05766166
0002b0 a1 e0 cc 3c 81 8c c8 3c 8d ce 6e bd 19 cb 28 3d
       0.025009455 0.02448106 -0.05830245 0.041209314
0002c0 51 91 36 bd 71 83 d9 3c aa 9e 8e bd 1a fa a2 bd
       -0.04457218 0.026551934 -0.069638565 -0.07957859
0002d0 76 e2 a1 3d 2d c2 46 3d 2f 54 25 3d 8c 24 89 3d
       0.07904522 0.048525024 0.040363487 0.06696424
0002e0 0c b9 8a bc 86 af a3 3d 92 02 12 3d fb c5 00 3d
       -0.01693394 0.07992463 0.035646982 0.03143881
0002f0 ab 97 9a bd 90 d3 38 3c ba 3a 47 3b 11 b8 d7 3b
       -0.075484596 0.011280909 0.0030399994 0.0065832217
000300 eb e1 aa bd 52 b3 d2 3c f6 00 a2 bb 60 f1 b3 3c
       -0.08343872 0.025720272 -0.004943962 0.021965683
000310 17 f0 0c 3d 99 18 73 3c 66 7b b3 3c 45 a9 8c bd
       0.034408655 0.0148374075 0.021909427 -0.06868223
000320 95 84 ce 3c 4d 2f 37 3d 1b 94 dd 3a 85 3a 3c 3d
       0.025209704 0.044722844 0.0016905101 0.045954246
000330 cf 9c 09 3c 33 94 60 3c 27 2e 98 3d 1f e2 ae bd
       0.0083992025 0.013707208 0.07430678 -0.08539223
000340 09 32 af bc 30 3b 9f bd f2 30 5b 3c 81 0b 76 3d
       -0.021386163 -0.07774961 0.013378369 0.060069565
000350 5d 2a 28 3d 23 e1 9e 3c 8c 6e 14 bd fe e8 1e bd
       0.041056026 0.019394463 -0.03623824 -0.038796417
000360 28 69 be 3c d1 54 a7 bd 05 ff 62 3d 47 01 21 3d
       0.023243502 -0.08170474 0.055418987 0.03930786
000370 da d2 20 3c d3 fa 93 bc f0 78 e7 3c 9a 0b b5 3c
       0.009815896 -0.018063938 0.02825591 0.022100259
000380 22 c6 72 bc 61 45 9d bc f0 dc af bc 60 7c 65 bd
       -0.014817746 -0.019198122 -0.021467656 -0.056026816
000390 3f 28 10 3d 07 ee 2d 3c c5 bc 94 3c 85 a9 fa 3c
       0.03519463 0.010615832 0.018156419 0.030598411
0003a0 7c 77 3c bd 67 63 72 3d e9 72 14 bd d8 27 82 3d
       -0.046012387 0.05917683 -0.0362424 0.06355256
0003b0 10 ca 4b 3d 96 05 4b bd 69 99 e5 3c f4 a3 fe 3c
       0.04975325 -0.049565874 0.028027253 0.031084038
0003c0 85 0c fe 3c f4 79 24 3c b8 d8 d0 bc 40 b3 9c 3c
       0.03101183 0.0100388415 -0.025493965 0.019128442
0003d0 70 f9 38 3c 21 b2 87 bd ef ee 7b bd d1 c3 e9 3c
       0.011289939 -0.06625772 -0.06150716 0.028535755
0003e0 55 3d 2a bc e2 22 a6 bd d4 e4 d4 bc 4c e3 60 3d
       -0.010390599 -0.08112122 -0.02598802 0.054904267
0003f0 93 a0 14 bd 19 89 b8 bc fc 30 b6 bc f5 9e 76 bc
       -0.036285948 -0.02252631 -0.022240154 -0.015052547

convs.1.nn.0.bias f4 [128]
000000 7d 50 50 bc 03 33 a5 bd 02 d5 92 3d 88 d9 77 bd
       -0.012714502 -0.0806637 0.07169534 -0.06051019
000010 47 3d 58 3d 42 60 79 3d 1d 3f 9b bd d2 7e 0e bd
       0.052792814 0.060882814 -0.07580397 -0.034788914
000020 92 f3 0f 3b 65 f6 39 bd 60 06 46 3d ac 4d 70 3d
       0.0021965248 -0.045400996 0.048345923 0.058667824
000030 b7 bb 0b 3d 07 0a e4 ba 5c 07 ae 3b 25 7e 04 3d
       0.034114566 -0.0017398008 0.005310936 0.032346863
000040 ad 0a 69 3d 4a a6 c4 3b 3c 0b 70 bd bd ef 1a bd
       0.056894947 0.0060012685 -0.058604464 -0.03782629
000050 e1 3e af bd 2b be 82 3c 2e 82 9d bd b4 b9 4e 3d
       -0.08556915 0.01595982 -0.076908454 0.05047007
000060 4b 03 f8 bc 37 fd e2 3c 6e 07 77 3d 9a ae 2c bd
       -0.030275008 0.027708633 0.06030982 -0.0421587
000070 c3 69 86 3b 57 a9 91 3c 6a ce de 3b 6a c6 89 3d
       0.0041019632 0.017780943 0.006799509 0.067272976
000080 84 a2 9d 3d 13 60 84 3d c9 4c 8a 3d f3 ea ad bd
       0.07697013 0.06463637 0.06752927 -0.08492079
000090 80 cf d9 bc b0 67 a5 3d 26 f9 8d 3d af f7 6e bd
       -0.026588202 0.080764174 0.06932287 -0.05834168
0000a0 93 79 ec bc 80 02 8a 3d 93 fa 34 bd b7 59 20 3c
       -0.028866565 0.06738758 -0.04418428 0.009787015
0000b0 c1 89 13 bc 42 fc 1a bd 25 84 0e 3c b9 1b 3b bd
       -0.009005011 -0.037838228 0.008698498 -0.045680735
0000c0 d5 7c 25 bd 2c 6f 66 bb fd 62 08 bb 2b de 73 bd
       -0.040402252 -0.0035161478 -0.0020810955 -0.059538048
0000d0 30 77 29 3d b7 07 d6 bc d6 01 6b 3d 8d ea 72 bc
       0.04137343 -0.026126726 0.057374798 -0.014826429
0000e0 eb ae 53 bd 8b 00 84 bd 44 5b a0 3d fd b8 fa bc
       -0.051680487 -0.06445416 0.078299075 -0.030605787
0000f0 aa 6d ac bd 71 db 82 3d 84 1c 89 bc c9 dc a2 bd
       -0.08419354 0.063895114 -0.01673723 -0.07952268
000100 e7 ba 40 3b ea f2 00 3d c7 1c 97 3d 8d 7f 8c 3d
       0.0029408277 0.03148166 0.07378536 0.06860266
000110 f5 37 81 bb a6 41 9b 3d 78 7a a3 bb 3a 2d 91 bd
       -0.003943438 0.07580881 -0.0049889646 -0.070887044
000120 0b 66 b4 3d a6 3c 02 3d 64 62 97 bd 93 c0 16 3d
       0.08808526 0.03179612 -0.073918134 0.036804747
000130 c7 00 9c 3d bb f3 03 bc 77 4b 02 3c b4 c7 9c 3d
       0.07617336 -0.008053715 0.0079525625 0.07655278
000140 4b 41 14 bc 6d f1 17 3d f0 e5 55 3d a2 12 da 3c
       -0.00904877 0.037095476 0.05222124 0.026620213
000150 d3 ce 94 bd fb fe 38 bc 53 11 0b bd 48 bb bc 3c
       -0.07266011 -0.011291261 -0.03395207 0.023038521
000160 aa cb be bc a1 d5 8b 3d 04 e5 e7 3c 00 85 7d bc
       -0.023290474 0.06827856 0.028307445 -0.015473604
000170 af f8 87 bd 69 24 36 bd 70 46 50 3d a4 df 94 bb
       -0.066392295 -0.044468317 0.050848424 -0.0045432616
000180 66 f1 a0 bd bd 7f a7 3d 27 62 b1 3d 8d 44 a7 3d
       -0.07858543 0.08178661 0.08661299 0.08167372
000190 40 66 53 bd be f3 a9 3d bc d2 86 bc 98 11 34 3d
       -0.051611185 0.08298443 -0.016457908 0.04396209
0001a0 82 b5 4e bd 47 f6 5c bd 43 12 31 3d c6 f3 0f bd
       -0.050466068 -0.053945806 0.043230306 -0.03514459
0001b0 ad a5 83 bd ea 4b b2 bd de e7 a6 bd a5 06 4b bc
       -0.064280845 -0.08705886 -0.08149694 -0.012391721
0001c0 67 46 8b 3c 51 4d 76 bd 41 21 61 bc ff 7d 42 bd
       0.017001344 -0.06013233 -0.0137408385 -0.04748344
0001d0 3f 4a 73 bd 8b e6 7a bd 0e c9 88 bd bb 21 70 3d
       -0.05939698 -0.06125502 -0.06678973 0.058625918
0001e0 f6 d3 5e 3d 36 46 9a bd d7 ba 2b bd 34 df a1 3d
       0.05440136 -0.07532923 -0.04192623 0.07903901
0001f0 dd fa f5 3b c8 db 30 3d 8b ab 65 bd cf 3e dd 3c
       0.007506712 0.04317835 -0.0560718 0.027007489

convs.1.nn.3.weight f4 [128, 128]
000000 ef 11 2c bd 14 25 4e bd 7c a5 7f bd f9 c7 9e 3d
       -0.04200929 -0.05032833 -0.062413678 0.077529855
000010 b2 cf 8e bd e8 0b 20 3c e0 e5 70 bd be f0 a6 3d
       -0.069732085 0.009768464 -0.058812976 0.08151387
000020 cb 64 e4 bb 4f 4c c0 bc 9b 4b b7 b8 bd ca 9a bd
       -0.0069700233 -0.023473887 -8.7402026e-05 -0.075582005
000030 38 b5 63 3c d1 d7 87 3d a3 67 a7 bd 77 0f c2 3c
       0.013898186 0.066329606 -0.08174064 0.023689015
000040 47 1b b2 bd 0d 1a 80 3d a1 59 c9 3c d4 0f 1b 3d
       -0.08696609 0.06254969 0.024578871 0.03785689
000050 f5 a4 30 bd 97 1a 6c 3d b7 2e 7a bd 60 91 85 bd
       -0.043126065 0.057642546 -0.061079707 -0.06521869
000060 67 bb 84 3d 2a fa 50 bd 08 6d b0 3b f9 57 88 bd
       0.06481057 -0.051019825 0.0053840913 -0.066574045
000070 64 0f bb 3c d6 95 90 bc 19 f3 e1 bb 71 4e ab 3d
       0.022834487 -0.017649572 -0.0068954346 0.08364571
000080 ef 0f 87 bc df 68 5f 3d ca 43 71 bc 81 bb a0 bd
       -0.01648709 0.054543372 -0.014725635 -0.078482635
000090 08 f8 9c bd b5 44 9a 3d b5 19 9c bd b7 6e 81 bd
       -0.07664496 0.07532636 -0.07622091 -0.06319945
0000a0 02 87 57 bb 42 d9 df bc 44 40 ab 3b b2 1f 40 bc
       -0.0032886867 -0.027325276 0.005226167 -0.011726307
0000b0 2c 15 47 3d ab ac 92 bd f1 e1 21 bc a7 8f a3 bd
       0.048604175 -0.0716184 -0.009880529 -0.07986384
0000c0 94 36 1a 3d 83 1e 4a bd d2 ca 69 3d 66 46 18 bc
       0.037649706 -0.049345504 0.05707819 -0.009294128
0000d0 ed a5 a4 3b a5 c8 82 3d 74 2e f7 bc ba cb 98 bd
       0.0050246627 0.06385926 -0.030173518 -0.07460733
0000e0 e0 c5 ae bd 69 61 db 3b 64 96 5b bd 63 aa 3e bc
       -0.085338354 0.006694962 -0.05361022 -0.011637303
0000f0 a9 df e9 bc 4f 60 5d bc 31 ae a9 3d b0 24 c0 3c
       -0.028549032 -0.013511731 0.082851775 0.023454994
000100 b4 26 9d bd 4d 71 98 bd bb ce 5e bd 11 f6 ae bd
       -0.07673398 -0.074434854 -0.054396372 -0.08543027
000110 25 97 7d 3d 5a 82 4f 3d f2 0c bf bc 40 cc 75 3d
       0.06191172 0.050661422 -0.023321602 0.06000924
000120 9a 21 7c bd b1 9e 95 3c 90 81 52 3d b6 63 72 3d
       -0.061555482 0.018264147 0.05139309 0.059177123
000130 5d 98 cc 3c 5d d5 47 bc d6 ea 46 3d 56 01 ee bc
       0.024974996 -0.012196866 0.0485638 -0.029053371
000140 01 47 fb 3c 7a 2d 11 3d 55 65 a0 3d 89 66 2d bd
       0.030673506 0.03544376 0.078318276 -0.042334113
000150 17 ec 1b 3d 06 d5 15 3d 38 17 93 3d ad 1a c9 3c
       0.03806695 0.036580108 0.07182163 0.024548853
000160 8c 8c 40 bd 70 1a 6e bd 99 5d 0b 3d 8a 67 a8 3d
       -0.047009036 -0.05813068 0.03402481 0.082228735
000170 93 66 87 3b 28 44 40 bd 3a 97 b4 bd d2 84 c7 bc
       0.004132101 -0.04694 -0.08817907 -0.024355326
000180 03 bf 6e bd 11 71 83 3d 31 98 96 bc 69 08 a5 3d
       -0.05828763 0.0641805 -0.018383117 0.08058245
000190 7d 88 e7 38 25 8f 35 bd 0b 1a 95 bc 3c fb ae bd
       0.00011040361 -0.044325966 -0.018200895 -0.08544013
0001a0 8b b6 70 bd ea ef ad bd 2b 09 66 bd f8 57 78 bd
       -0.058767837 -0.084930256 -0.056161087 -0.06063077
0001b0 9b 77 a4 bd c4 f5 87 bd d4 03 e6 bc 8c 3f 85 bd
       -0.080306254 -0.06638673 -0.028077997 -0.06506261
0001c0 d1 2e 95 3d 98 26 6b 3d 2c 3d ad 3d 00 91 8e bd
       0.0728432 0.057409853 0.08458933 -0.0696125
0001d0 da 93 70 3d ca 8a db 3c 6f 00 b2 bc 74 9b 4e 3c
       0.058734752 0.026799578 -0.021728722 0.012610305
0001e0 f6 a1 37 bd 06 f7 38 3b 99 e7 46 3d fa f7 6f bc
       -0.044832192 0.002822341 0.048560712 -0.014646525
0001f0 05 d5 88 3d 6f 71 ae 3d e8 cc 9d 3d 64 ad b6 bc
       0.06681255 0.085177295 0.077050984 -0.022299476
000200 5c 1a b3 bd ca 45 38 3c fd 39 95 3d 34 41 81 bd
       -0.08745262 0.011247108 0.07286451 -0.06311265
000210 00 2c 4d bd f7 c0 e8 3b ea 61 ce bc bc af 75 3d
       -0.05009079 0.0071030813 -0.025193173 0.059982046
000220 a4 55 48 3d 07 55 29 3d bc f0 9c bd 62 b8 71 bd
       0.0489098 0.041340854 -0.07663104 -0.05901373
000230 46 d8 ac 3d cb 2c 39 3b 6f e5 b1 bc d7 17 ba bc
       0.084396884 0.0028255458 -0.021715848 -0.022716446
000240 b2 0e 1d 3d f4 9f d5 bc 0e 5b 84 3d 0a c1 f9 bb
       0.038344093 -0.026077248 0.0646268 -0.007621889
000250 8a aa 12 3d 01 b6 67 bd da b8 16 3d 56 ea 27 bd
       0.03580717 -0.056570057 0.036797382 -0.040994965
000260 73 ad 0b bd c2 94 5f 3d 6c 68 9c bd c2 46 a9 bd
       -0.03410096 0.054585226 -0.076371044 -0.08265449
000270 12 a1 0a 3c 1d ef db bc c1 54 95 3c c0 d9 a1 bc
       0.008461254 -0.026847417 0.01822889 -0.019757152
000280 6c 52 89 bd a0 1d 7e bd 60 78 7a 3d 79 90 a8 bd
       -0.06705174 -0.06203997 0.061149955 -0.08230681
000290 fc 15 2f bd 5b e7 29 bc 4e 16 51 3d b8 c2 a4 bd
       -0.042745575 -0.010370101 0.051046662 -0.08044952
0002a0 c8 32 69 bd 1c 85 ec bb c2 3f 62 3d 40 84 8b 3c
       -0.056933194 -0.0072180163 0.055236585 0.017030835
0002b0 d4 37 0c 3d 8d 88 1b bd b8 c2 a8 bd 71 af 54 bc
       0.03423293 -0.03797202 -0.08240265 -0.012981282
0002c0 35 37 0b 3d 64 c4 80 bd 7f c9 f1 bc 1a b0 ae 3d
       0.033988196 -0.062874585 -0.029515026 0.085296825
0002d0 a8 db f2 b9 28 dd 46 3d 29 1a 6e 3d 0e 4b 41 3d
       -0.00046321494 0.048550755 0.058130417 0.04719072
0002e0 67 0d 1d 3d 8a fd 98 bd 72 7a fb 3b f4 58 4c 3d
       0.03834286 -0.07470234 0.0076745087 0.04988952
0002f0 3c 4b 23 3d c3 2a 56 bc 48 33 08 bd 1d d1 cc ba
       0.03986667 -0.013071719 -0.03325203 -0.0015626285
000300 97 a6 1c bc dc a4 cb 3a 43 27 95 bd 2b 71 81 bd
       -0.0095612025 0.0015536803 -0.07282879 -0.06320413
000310 48 a6 be bc 79 bd 8d bd 18 a8 8c 3d a8 37 30 3d
       -0.023272648 -0.06920905 0.06867999 0.043021828
000320 84 0e b0 3d d0 f0 1a 3d 94 24 9c bd ab 3a 8d 3d
       0.08596519 0.037827313 -0.07624164 0.06895956
000330 2e cd 40 bd 53 67 5f 3d 3c 55 79 bd a2 19 f8 3c
       -0.047070675 0.054541897 -0.0608723 0.03028566
000340 78 a0 61 bd c7 28 18 bd ca c4 08 bc c2 f1 32 3d
       -0.055084676 -0.037148263 -0.008347699 0.04368759
000350 45 06 ad 3c d0 d7 c3 3c de 2f a3 b8 35 3c 54 bd
       0.021121154 0.023906618 -7.781362e-05 -0.05181523
000360 b7 12 a2 bd 28 3b 45 3d d5 74 ae bd 8c e6 2b 3d
       -0.07913726 0.04815212 -0.08518378 0.041967914
000370 b2 3f dd 3c 55 af 8c 3b 79 13 34 3d 77 bf a4 3d
       0.027007911 0.004293362 0.043963883 0.080443315
000380 13 dd 47 bd e6 00 19 bc b0 ed 0c 3c e4 76 98 3d
       -0.048794817 -0.009338593 0.008601591 0.074445516
000390 a5 a8 76 3d 22 39 b1 3c d2 82 7e bd 45 8a 2d 3d
       0.060219426 0.021633688 -0.06213648 0.042368192
0003a0 95 4e 9f bc ca 19 59 bc 1a 75 88 bd 01 87 ed 3c
       -0.01944665 -0.0132507775 -0.0666296 0.028995039
0003b0 7d a0 77 bd 92 b2 2a 3d e3 3d 83 bd a1 e9 7d 3d
       -0.060455788 0.041674204 -0.06408288 0.061990384
0003c0 91 90 0e bc 37 60 54 3d 85 89 53 bd 78 e5 5f 3d
       -0.0087014595 0.05184957 -0.05164482 0.054662198
0003d0 df e2 50 bd 25 61 64 3d 3e 88 7e 3d 1e c2 0e 3d
       -0.05099761 0.055756707 0.06214165 0.034853093
0003e0 9a 29 19 3d 0b 8e 93 bd e4 11 5d 3d 5f 56 45 bd
       0.03739319 -0.07204827 0.05397214 -0.048178073
0003f0 ef 89 1b bc b9 bf 9a bd 6a b0 86 bd 43 59 fa bc
       -0.009493335 -0.075560994 -0.06576617 -0.030560141

convs.1.nn.3.bias f4 [128]
000000 41 7e 80 ba 3c ac 7d bd 17 d2 88 3d f0 a5 3b 3d
       -0.0009803252 -0.061931834 0.066806965 0.045812547
000010 7d a0 ec bc cc a9 13 3c b3 90 71 bc 04 93 30 3d
       -0.02888512 0.009012651 -0.014743972 0.043108955
000020 a9 7a a0 3c 39 73 b4 3d 51 61 f8 bc 5d 74 ad 3d
       0.019589739 0.088110395 -0.030319842 0.0846946
000030 e0 dc 15 bc 49 a6 8d bd c9 a0 3a bd a0 1e 9b bd
       -0.009146899 -0.06916482 -0.045563493 -0.07574201
000040 41 8b 4a bc f8 7c 97 3d 76 cd 8e b9 b3 3c 82 bd
       -0.012362302 0.07396883 -0.0002723743 -0.06359234
000050 4a 7f 86 3d e3 fd 11 3d 97 cf 8e bd af f6 a6 3d
       0.06567247 0.035642516 -0.06973188 0.0815252
000060 b9 4f 15 bb d6 c8 29 3c 4f 0a b1 3d 38 c0 fd bb
       -0.0022783114 0.010362824 0.08644544 -0.0077438615
000070 3e eb 10 bd 4e b5 81 bd 6e dc 94 bd ee fc a1 3d
       -0.035380594 -0.06333409 -0.07268606 0.07909571
000080 04 30 0b bd d3 fd fa bc b8 a1 a9 3d 42 af 36 bd
       -0.03398134 -0.030638611 0.082827985 -0.044600733
000090 65 e8 0a bb e6 59 ab bd 60 b5 9d bd ea f3 21 3d
       -0.0021195647 -0.08366756 -0.0770061 0.039539255
0000a0 35 dc 2b bd 50 d9 99 3d 5a fe 5d bc 6a da 01 3d
       -0.041958053 0.07512152 -0.013549412 0.031702437
0000b0 99 a7 39 3d 8e ad 8f 3d 75 97 b0 3b bc 55 b0 3d
       0.04532585 0.07015525 0.005389149 0.086101025
0000c0 a7 99 e1 3c c2 f5 cf 3c e8 0c fc bc 2e 92 a8 bd
       0.027539087 0.025385741 -0.030767873 -0.082310066
0000d0 c7 4c a7 3d ef 52 86 3d f0 62 04 3d 31 d7 cd 3b
       0.08168941 0.06558787 0.032320917 0.0062817563
0000e0 ba b7 4c bd eb 4b 80 bc 54 9e d1 3b ff fd 22 bd
       -0.049979903 -0.0156612 0.006397048 -0.03979301
0000f0 18 ad a9 3d 68 3e 17 bd f6 d7 a6 bc 22 0d 8e 3d
       0.08284968 -0.03692475 -0.02036665 0.06936099
000100 bb bd da 3b 0b 15 1e bd 3d 47 98 3d e1 8f 73 bc
       0.0066754497 -0.038594287 0.074354626 -0.014865846
000110 cc 87 37 bd 1d a5 a3 3c cc 45 5d bb b1 e1 17 3a
       -0.04480724 0.019976193 -0.0033763526 0.00057938235
000120 f3 86 65 3d f2 7d 88 3c ec 9b 8b bd 3b 1e 56 bd
       0.0560369 0.016661618 -0.06816849 -0.052274924
000130 c9 cd 4f bd 94 99 7d ba 65 06 1a bc e2 b1 26 3d
       -0.05073336 -0.0009674069 -0.009400939 0.040696986
000140 27 0b 23 bd 54 77 28 3c c9 e1 ae bd 4e 59 2a 3c
       -0.039805558 0.010282356 -0.08539159 0.010397268
000150 29 cc a2 3d e8 9f 0f 3d 26 d8 a1 3d 4d d5 14 3c
       0.07949097 0.035064608 0.07902555 0.009084058
000160 bb 07 57 bd 0c ca 93 3d a8 9d 36 bd f7 ea 7d bd
       -0.052497607 0.07216272 -0.044583946 -0.061991658
000170 99 9f 65 bd d5 65 83 3d 8c 55 ab 3d cd d0 79 3d
       -0.056060407 0.06415907 0.08365926 0.060990144
000180 fb fb fb 3c f5 47 ad bd 2c 34 5e b8 00 28 5c bd
       0.030759802 -0.0846099 -5.2977513e-05 -0.053749084
000190 b9 b3 70 3b a9 ff 25 3c 64 ec a2 bd e2 8a 2c bd
       0.0036728217 0.010131755 -0.07955244 -0.042124636
0001a0 4b 73 a2 3d a1 84 81 bd da 2e a7 bd 75 04 5c 3d
       0.07932147 -0.06324125 -0.08163233 0.053715188
0001b0 78 18 66 bd 78 bc 87 bd 3c fd e3 bc aa 5e 37 bb
       -0.05617568 -0.066277444 -0.027830712 -0.0027980008
0001c0 ed 39 a2 3c 06 82 8e 3d 3e 01 a3 3d 02 40 ad 3d
       0.019803012 0.06958394 0.07959221 0.08459474
0001d0 95 e0 a2 3c 0c a5 0e bd f1 17 1a 3c 1b fb 98 ba
       0.01988248 -0.03482537 0.009405122 -0.0011671515
0001e0 97 53 16 bd 1b 6e ab 3d 5a 75 dc 3c b6 67 1a 3c
       -0.03670081 0.0837061 0.026911426 0.009424141
0001f0 c2 e6 b3 3d 6e 27 2b bd c7 1f 3b bd bf dc 9b 3d
       0.08784248 -0.04178565 -0.045684602 0.07610463

convs.2.nn.0.weight f4 [256, 128]
000000 5a 9b bd ba 56 d0 05 3d e6 3a 58 bd 63 b3 09 3b
       -0.0014465854 0.032669388 -0.052790545 0.0021011464
000010 e0 2f 11 3d 6e c9 05 bb b9 f9 8e bd 06 38 25 3d
       0.035446048 -0.002041425 -0.069812246 0.04033663
000020 02 df 5b 3d a5 34 89 3d 21 d9 31 3b 01 62 96 bc
       0.053679474 0.06699494 0.0027137476 -0.018357279
000030 2f 0e 84 bd 6c cb df 3c 3d 9b 9f bd 42 d2 90 3d
       -0.06448018 0.027318679 -0.07793281 0.070713535
000040 68 05 ef 3a c0 49 b4 bd f6 3c aa 3d ba ab 85 3d
       0.0018235864 -0.08803129 0.083124086 0.06526895
000050 20 b2 21 3c e5 80 00 bd ba 4a 4d 3d b3 ea ae bd
       0.009869128 -0.031372923 0.050120093 -0.08540859
000060 d2 a5 16 3d 10 72 30 bd 19 bd 3d bd 89 73 8a bd
       0.036779232 -0.04307753 -0.046322916 -0.06760318
000070 c9 82 15 3d 4f ef 5b bd 60 4e 37 bc bf 4c 46 3d
       0.03650168 -0.05369502 -0.01118812 0.048413035
000080 7e c6 98 3d c7 f2 cd bc 9f 97 87 3c 64 64 92 3d
       0.074597344 -0.02514018 0.01655179 0.07148054
000090 05 37 18 bd 9f 01 27 3d b4 ef 32 3d b4 5d ba 3c
       -0.037161846 0.04077303 0.04368563 0.02274976
0000a0 43 2e ce bc 10 03 b0 3d e5 e5 75 bd 0e 00 8b 3d
       -0.025168544 0.08594334 -0.060033698 0.0678712
0000b0 64 1b bc 3b 6f 62 2d 3d 3b 96 f5 3c 2e 95 30 bd
       0.00574057 0.0423302 0.029978862 -0.04311102
0000c0 c5 c6 12 bd c2 c0 8a bd 81 cc d5 bc 41 e7 ca bc
       -0.035834093 -0.06775047 -0.026098492 -0.024768474
0000d0 01 7d 8e 3d 88 c6 88 bd 83 ee 8a 3d 03 85 6e 3c
       0.06957436 -0.06678492 0.06783774 0.01455808
0000e0 1a d1 8a bd dc cb 9d 3c 28 cf 92 3d 07 11 17 bd
       -0.06778164 0.019262247 0.07168418 -0.036881473
0000f0 7a ec 1e bd e6 b9 c9 bc ea 36 27 3d c7 dd 6e 3c
       -0.03879974 -0.024624776 0.040823855 0.014579243
000100 cb 77 80 bd 46 93 ab bd 61 f9 b4 3d af 00 a9 3d
       -0.06272849 -0.083776996 0.08836628 0.082520835
000110 56 4b 6b 3d 1e c0 6c bb 73 1e 1a 3d 6d 34 a1 3d
       0.057444893 -0.0036125253 0.037626695 0.078713275
000120 b2 86 cd bc bd 0d 9b bc 4d f7 35 bd e9 7c 02 bc
       -0.025088642 -0.01892745 -0.044425298 -0.007964351
000130 c1 ba aa 3d 93 f0 18 3d 37 7f 5b bc 61 5c 31 bd
       0.08336402 0.037338804 -0.01339703 -0.04330099
000140 cf 90 71 bd be c6 a7 3d 5a 91 ad 3d f7 b9 ab bd
       -0.05897599 0.08192204 0.08474989 -0.08385079
000150 7a 7e 10 bd 09 64 f2 3c 04 b7 a5 bd 15 ca ae bd
       -0.035276867 0.029588716 -0.08091548 -0.08534638
000160 e2 76 88 3d 03 13 8e bd be e5 9a 3a 3b 64 25 3d
       0.066633 -0.0693722 0.0011817736 0.04037879
000170 ef bb 9f bd e9 15 98 3c ce f5 be bc 5f f6 9e bd
       -0.07799517 0.018565135 -0.023310568 -0.07761835
000180 9a 20 88 bd cf 07 52 3d 18 b0 ad 3c be 24 b4 3d
       -0.06646843 0.051276978 0.021202132 0.087960705
000190 f7 d3 95 3c ce 0b af bd b7 70 6e 3b 53 18 99 3d
       0.01828955 -0.085471734 0.0036383101 0.074753426
0001a0 fe 5f 2d bd 66 29 11 bd 6c a8 99 3d 28 9b 29 bd
       -0.042327873 -0.03543987 0.07502827 -0.041407734
0001b0 cd 00 5e bd 5b f6 88 bd 82 7a 29 bd e9 c7 33 bd
       -0.054199982 -0.066876136 -0.0413766 -0.04389182
0001c0 c1 33 a6 3d 04 d7 1b bc 69 9d a4 bd 84 4d 6b 3d
       0.0811534 -0.009511713 -0.08037836 0.05744697
0001d0 d7 94 ad bd 1e b4 9a 3d 5b 1b 13 bc d8 b0 9d 3d
       -0.084756546 0.07553886 -0.00897869 0.07699746
0001e0 b3 fd 42 bd e0 bb 96 bc 99 2d c0 bb 11 07 22 bd
       -0.047605228 -0.018400133 -0.0058648107 -0.03955752
0001f0 33 79 58 bd 9a 9e 9c 3d 3a d3 8c bd 99 c4 9a 3d
       -0.05284996 0.07647438 -0.06876226 0.07557029
000200 5f 0c 42 bd 26 33 dd 3c bc fb 28 bd a0 cf 95 bd
       -0.04737508 0.027001929 -0.041255698 -0.07314992
000210 98 92 8d bc 27 37 1e bd 20 e1 e0 bc 25 86 a0 bd
       -0.017281815 -0.038626816 -0.027451098 -0.07838086
000220 4b 04 82 3d 46 e4 56 3d 8b d3 61 bb 0c 97 87 3c
       0.06348475 0.052463792 -0.0034458365 0.016551517
000230 da e4 5d bd 08 87 96 bd d3 a5 12 3d c9 a0 a2 3d
       -0.054173328 -0.07349974 0.035802674 0.079408236
000240 86 30 6b 3c 8f 5a b1 bc 4f cd 52 3d 3d 20 87 bd
       0.014354831 -0.021649627 0.05146533 -0.06597946
000250 7f d7 98 bb 90 9b 8a bd a8 65 01 3c 1e fd 83 bd
       -0.004664361 -0.067679524 0.007897772 -0.06444763
000260 c1 05 9a 3d d1 7a 24 3d a5 b7 95 3d 33 4d 29 3d
       0.07520629 0.04015619 0.07310418 0.04133339
000270 27 5d b7 3c 24 09 04 3d 0c 5e a9 3d ed 3c 7f bb
       0.022383286 0.03223528 0.08269891 -0.0038946227
000280 30 c7 ab bd 55 97 00 bd 69 a7 40 3d 9e 5a 04 bd
       -0.083876014 -0.03139432 0.047034655 -0.03231298
000290 39 59 a2 3d 3b 83 19 3d 9e af 58 bd e1 45 bd bb
       0.07927174 0.037478667 -0.052901857 -0.0057761525
0002a0 0a bf 01 bd 57 8e 9a bd 0c ac 8e 3c 66 b3 23 3d
       -0.03167633 -0.075466804 0.017416023 0.03996601
0002b0 5f 9a 71 3d 79 20 b2 ba 77 54 78 3d 82 b9 45 bc
       0.05898511 -0.001359 0.060627427 -0.012068154
0002c0 69 6c 1f bd 87 86 62 3d 81 9f 9b bd fb f4 57 3b
       -0.038921747 0.055304077 -0.07598782 0.0032952416
0002d0 5c 05 32 bc 65 7a e6 bc 8f 87 ac 3d f4 6c 65 3b
       -0.010865536 -0.028134534 0.08424293 0.0035007568
0002e0 1e 69 ec bc 31 4f 18 bd ec 5e a0 bc 7e 19 2a bd
       -0.028858718 -0.037184898 -0.019576512 -0.041528217
0002f0 bc d5 81 3d fc d5 54 bd 1e 0b ad 3d f4 13 2e bd
       0.06339595 -0.051961884 0.08449386 -0.042499498
000300 85 c6 98 3c 0b c5 1d 3d 51 25 d8 3c 84 45 5c bc
       0.018649349 0.038517993 0.026384981 -0.013444308
000310 33 f0 0c 3d 66 de 0a bd 56 af 84 bc de 55 a6 3d
       0.03440876 -0.033903502 -0.016196888 0.081218466
000320 e6 35 9e 3c 14 4c 78 3d e0 a2 85 3d 5d 6e b4 3c
       0.01931281 0.06061943 0.065252066 0.022025282
000330 93 df ff bc 2f 16 74 3d bd bf 3b 3d e7 5d 06 bd
       -0.031234538 0.05959147 0.045837153 -0.032804396
000340 48 3c ae 3d a7 0b a9 3d 35 8c 19 3d c8 5a c7 bc
       0.085075915 0.08254176 0.037487227 -0.02433528
000350 83 6c 38 3c de 28 94 bd 5e dd 92 bc b4 77 a7 3d
       0.01125634 -0.07234357 -0.017927822 0.081771284
000360 ad 35 54 3d ef 2c 15 3c 6e d3 9a 3d 40 54 40 3d
       0.051809 0.009104951 0.07559858 0.046955347
000370 ba 4c 39 bd 97 51 aa bd f0 f0 2e 3c 40 b0 50 bd
       -0.045239188 -0.08316343 0.010677561 -0.050949335
000380 2c a6 a8 3d 83 03 05 3b 95 f5 d0 bc f2 c9 a3 bd
       0.0823482 0.0020296283 -0.025507728 -0.079975024
000390 80 fd 38 bc 88 a4 41 3d 43 44 8f bd 2e 6d 9a bd
       -0.011290908 0.04727605 -0.06995442 -0.075403556
0003a0 eb fc 91 bc e0 ca 77 3d 88 b7 67 bd 37 f9 1d bd
       -0.017820796 0.06049621 -0.056571513 -0.038567748
0003b0 16 9d 53 bd e6 e5 ad bd 60 93 d9 bc f0 04 ec bb
       -0.05166348 -0.08491115 -0.026559532 -0.007202737
0003c0 b3 e2 9d 3d c2 d6 75 3d cc 78 02 3d e9 4f 5b 3d
       0.07709255 0.060019262 0.031853482 0.053543005
0003d0 46 59 4d 3d 36 b0 ec bc bf 27 57 bd f1 e8 8b 3d
       0.050133966 -0.028892618 -0.05252814 0.068315394
0003e0 41 da 3b 3d 15 64 ab bd f3 60 88 3c 0e b8 61 3d
       0.04586244 -0.083686985 0.016647791 0.05510717
0003f0 27 93 55 bb 2c 70 b0 bd de 3a 1d 3d e6 37 ca 3c
       -0.003258893 -0.08615145 0.03838622 0.024684858
