dev/hyperparameter_tuning/trials/tuning_250128_2235/trials_logs/trial_2/trial_2_model.pth (torch, 866352 bytes, 18 tensors)

convs.0.nn.0.weight f4 [128, 1]
000000 eb 67 8a 3d e7 e5 08 3f 70 4f 05 3f 7c 2f 11 3f
       0.06758102 0.53475803 0.52074337 0.5671308
000010 98 4a 72 bf 46 61 03 bf ba c8 3f 3d 58 05 c9 3e
       -0.9464507 -0.513203 0.046822287 0.3926189
000020 5c 84 ab be cd 56 14 3f 7a 50 28 bf a8 0a 20 3f
       -0.3349942 0.5794495 -0.657478 0.6251626
000030 e8 fe 6d be 18 b6 0c be 77 c6 b4 3b ea 6e 27 bf
       -0.2324177 -0.13741338 0.005516823 -0.65403616
000040 c6 72 4d bf 20 91 9d be 17 71 70 3f dc 80 69 3e
       -0.80253255 -0.30774784 0.9392256 0.22803062
000050 84 3d e0 3e 69 f0 68 bd 46 09 7b 3f 92 23 10 3e
       0.43796933 -0.056869898 0.98061025 0.14076069
000060 79 94 20 bf 9a 04 d6 be 54 63 14 bf 9d 9b fc 3e
       -0.6272655 -0.41800386 -0.5796406 0.49337474
000070 c1 6b 6e 3f 4b a9 9d 3e 08 30 0c bf de 3e 25 bf
       0.9313317 0.30793223 -0.5476079 -0.6454905
000080 d4 65 30 bf 6c 66 50 3f f5 86 ac 3d b7 98 24 3f
       -0.6890538 0.81406283 0.084241785 0.64295524
000090 1b 1e 0d 3d 8f ed 09 3e 66 3f 6a bf c6 d9 3b bf
       0.03445254 0.13469528 -0.9150299 -0.7337917
0000a0 92 e0 4f bf 76 6e cb 3d a0 64 57 bf c3 d8 24 3f
       -0.8120204 0.09933178 -0.84137917 0.6439325
0000b0 82 d4 af 3e 35 50 61 3e c2 8e 25 3f 80 f4 6f 3c
       0.34341818 0.22003253 0.64670956 0.014645696
0000c0 ba 73 70 bf 3a ba 3e bf 84 da 36 bf 21 16 1f 3e
       -0.93926585 -0.7450291 -0.7142718 0.15535785
0000d0 51 71 c4 3e ed d2 b2 3c 49 9a 9a 3e 8a 4b e6 3e
       0.38367704 0.021829093 0.30195835 0.44979507
0000e0 71 b6 cb be f9 db 7b 3f e8 ed 50 3f d4 64 ec be
       -0.3978763 0.98382527 0.81613016 -0.46170676
0000f0 80 0a 2a be ac c3 82 be 82 7c 35 3f 27 9d 43 be
       -0.16605568 -0.2553991 0.7089311 -0.19102918
000100 90 5a 77 bf 10 11 a4 bd 4c 2f 95 be e3 c5 e8 3e
       -0.9662256 -0.08011067 -0.29137647 0.45463476
000110 00 83 64 3c f9 6b 3f 3f f0 b0 77 3f 8c 07 bf 3e
       0.013947248 0.7477413 0.9675436 0.37310445
000120 d8 34 71 be e0 a2 bc 3d 40 1c 6b bf 38 c5 4b 3e
       -0.23555315 0.092107534 -0.9183998 0.19899452
000130 51 c2 0b 3e c5 61 0c bf 84 65 3d 3f 13 23 38 3f
       0.13648345 -0.54836684 0.73983026 0.7192852
000140 71 0a 67 3c 64 39 a0 be 27 f8 6e 3f 30 55 bf bd
       0.0141016105 -0.31293786 0.933474 -0.0934242
000150 7a ea 59 3f e4 57 c6 be c4 4a 30 bf 42 2a a6 bc
       0.8512341 -0.3873893 -0.68864083 -0.020283822
000160 7a 1b 6d bf f8 d0 94 be 00 e8 da 3a c6 8b 29 bf
       -0.9262005 -0.2906568 0.0016701221 -0.662289
000170 e0 8f 9a bd 6b be 0b 3f f2 56 4c bd e4 46 9e be
       -0.07546973 0.5458743 -0.049887605 -0.3091346
000180 10 22 6c bf fa b0 77 bf 80 15 0e bc c0 8c ae be
       -0.92239475 -0.9675442 -0.008672118 -0.3409176
000190 d0 2a 66 be 10 2c 42 bf 46 58 20 bf 1d 93 f5 3c
       -0.22477269 -0.75848484 -0.62634695 0.029977376
0001a0 2f 47 61 3f fa b1 66 bf a2 53 2f bf ec 25 c6 3e
       0.8799924 -0.9011532 -0.6848699 0.38700807
0001b0 f0 69 0d 3d 6e 10 cb be 73 36 56 3f e6 80 0a 3f
       0.034524858 -0.39660972 0.8367683 0.54102933
0001c0 35 d3 8e be 70 69 41 be 3c 4f 6c bf c6 e3 40 3f
       -0.27895513 -0.18887877 -0.923084 0.75347555
0001d0 8c 10 c1 3e 20 f9 28 3f 80 b2 5d 3d b4 97 3c 3f
       0.37707937 0.66005135 0.05412531 0.7366898
0001e0 7c 1d e2 be 1f 23 49 3f de 45 1f bf 98 39 cc be
       -0.4416312 0.78569216 -0.62215984 -0.3988769
0001f0 10 c5 02 3f ec bb fa be 44 0e 7b bf 9d ef a6 3e
       0.51081944 -0.48971498 -0.9806864 0.32604685

convs.0.nn.0.bias f4 [128]
000000 55 f4 5b 3f 7a fd f0 be 42 ff 45 bf 65 59 27 bf
       0.85919696 -0.47068387 -0.7734262 -0.6537078
000010 20 ce 8e 3d 7a 2f 72 bf 13 39 ce bd 88 5b 33 bf
       0.06972909 -0.94603693 -0.1006948 -0.7006154
000020 76 ae 2a bf a9 3c 5a bf f4 1e 47 bf 92 8a 80 bc
       -0.66672456 -0.8524881 -0.77781606 -0.015691075
000030 b1 93 36 3e 40 4c 57 be 4a 11 59 ba ef 3a 22 3f
       0.17829777 -0.21025181 -0.00082804693 0.63371176
000040 8c ac f2 be b2 99 0d bf 92 b5 56 bf 1a 3e 11 3f
       -0.47397268 -0.55312645 -0.83870804 0.56735384
000050 52 1d 85 be 27 ba 4e 3f b1 45 90 be 99 0b 34 3f
       -0.25998932 0.80752796 -0.2817817 0.70330197
000060 e9 ab 5f 3f 1d cd 03 3f 54 c2 7b 3e bb a0 eb be
       0.8737169 0.51484853 0.24585849 -0.46021065
000070 1c 02 18 3e 69 4d 50 bf 30 a7 5c 3f 00 5a eb bd
       0.14844555 -0.8136812 0.8619261 -0.114917755
000080 22 66 6d bf 82 fc d4 3e e3 b3 ce 3e c3 d7 fe 3d
       -0.9273397 0.41598898 0.40371618 0.12443497
000090 8c f5 02 3f d0 2f 84 be 6e 5b 9f 3d 33 5c 4d 3f
       0.51155925 -0.25817728 0.07781111 0.8021881
0000a0 3c a3 4f bf 6e fc 56 3f 9d 2f 3e 3f 61 38 86 bd
       -0.8110845 0.8397893 0.742914 -0.06553722
0000b0 e5 08 0b 3f c5 cd d5 be d5 42 4e be 10 a3 50 bf
       0.54310447 -0.41758552 -0.20142682 -0.81498814
0000c0 9d 91 0b 3f 67 9b 4d 3f f0 65 24 bf 12 68 24 3f
       0.54519063 0.8031525 -0.64218044 0.642213
0000d0 85 0d 58 bf 72 6e 94 3e 3f 9b 1a 3e 06 3f 02 bf
       -0.8439563 0.28990513 0.15098284 -0.50877416
0000e0 24 33 50 3f 7a 2b ce 3e f8 aa cf 3d c2 a5 55 bf
       0.81328034 0.40267545 0.101400316 -0.8345605
0000f0 c2 b7 03 bf 80 78 78 bd 63 1c 7e bd ea fa a1 3e
       -0.5145227 -0.060661793 -0.06203879 0.31636745
000100 5e 4b 25 3f ce 90 4c bf 58 1f 2f bf 8a 54 36 3e
       0.64568126 -0.79908454 -0.684072 0.17805687
000110 30 cf 7a bf 78 8f 31 bf 45 6a 5e be 7f 75 66 be
       -0.97972393 -0.6935954 -0.21720226 -0.22505759
000120 0a bd 41 bf a0 e5 08 bf dc bb 04 3e 1a 33 2d bf
       -0.75679076 -0.5347538 0.12962288 -0.676561
000130 da 9b 63 3f c9 47 68 3f 75 80 22 3f f0 c9 ec be
       0.88909686 0.90734535 0.6347726 -0.46247816
000140 f1 39 a6 3e b9 48 ab 3d 42 e3 72 3f 56 10 27 bf
       0.3246608 0.0836348 0.9487802 -0.652593
000150 23 81 3e 3f 78 91 06 bf 1c 45 fa 3e 1c 03 1d 3e
       0.74415797 -0.5256572 0.4888085 0.15333217
000160 b0 78 ad be ef bb 3a 3e bc a2 32 bf 2c 33 2a bf
       -0.3388114 0.18235753 -0.6977956 -0.6648433
000170 f6 bc 6b bf 45 a2 56 3f 4b 51 5e 3f 3e 7d 24 3f
       -0.92085207 0.83841354 0.86842793 0.64253604
000180 e2 0c 16 bf cc b1 4e 3f 00 27 e1 be e8 ea da be
       -0.5861341 0.80740047 -0.43975067 -0.42757344
000190 f0 6e c6 bd 3c f1 ea be 78 80 26 3e 0b d4 d1 3e
       -0.096891284 -0.45887172 0.16259944 0.40982088
0001a0 eb d9 1c 3e 3c 3e 62 bf 5a 3d 18 bf 2e 88 51 be
       0.15317504 -0.8837621 -0.59468615 -0.20462105
0001b0 22 ad 2a 3f 62 49 1c 3f 02 d2 48 3f 05 01 04 3f
       0.6667043 0.61049473 0.78445446 0.51564056
0001c0 4c 42 5d 3f ec 69 08 3e c2 e1 cd 3e 5f b1 69 bf
       0.86429286 0.13321656 0.40211302 -0.9128627
0001d0 41 9f 64 3f 30 e7 5d bf a8 52 8d be a0 32 c6 3e
       0.893055 -0.8668089 -0.27602124 0.387105
0001e0 76 d5 48 3e b6 a6 6d 3e 8a 6c 10 bf 4c 49 2d 3d
       0.19612679 0.23208126 -0.5641562 0.04230623
0001f0 16 73 b8 be 55 b3 12 3e 40 40 85 bd 6c ea 13 bf
       -0.36025304 0.14326222 -0.06506395 -0.57779574

convs.0.nn.2.weight f4 [128, 128]
000000 c3 b5 2f bd f4 12 85 3d fe d5 a4 3d f8 3b 30 bc
       -0.04289795 0.06497756 0.08048628 -0.010756485
000010 17 d2 5b bd 04 47 27 3d 98 2f 73 3d 12 54 9b bd
       -0.053667154 0.04083921 0.05937156 -0.075843945
000020 29 df 43 3d 2a 43 b3 bc 94 11 1c bd fc f6 a4 bc
       0.047820244 -0.021882612 -0.0381027 -0.020137303
000030 01 7f 44 3d a0 4b ee 3c bf aa 89 bc e6 ee 7a 3d
       0.047972683 0.029088795 -0.01680505 0.061262988
000040 69 a1 90 bd 9b 04 55 3b b6 91 56 3d 74 05 08 bd
       -0.070620365 0.0032503966 0.052385055 -0.033208326
000050 e8 06 b3 bd 82 ff 69 3d 45 33 02 3d 03 33 e2 3c
       -0.08741552 0.057128437 0.031787176 0.027612215
000060 a8 29 9c bd 17 7a 64 3d 31 73 f7 bc b1 34 51 bc
       -0.07625133 0.055780496 -0.030206295 -0.01276891
000070 eb e0 2e 3d 41 2b 07 bd 29 81 b5 3d cc 42 89 bd
       0.042694967 -0.033000235 0.08862526 -0.067021936
000080 39 8a 94 3d 4f c4 c2 3c 65 24 10 bd db 57 8d bd
       0.072529264 0.023775248 -0.03519096 -0.06901523
000090 5b 3f 8c 3d 93 39 f3 3c 2f d4 3c bc 40 32 aa bc
       0.068480216 0.02969054 -0.011525198 -0.020775914
0000a0 d8 9e 6e 3d 78 38 c2 ba 81 07 9e 3d 8b 22 81 3c
       0.058256954 -0.0014817854 0.07716275 0.015763542
0000b0 70 51 bf bc 2f 59 19 bc 20 68 54 bd 1d 13 07 bc
       -0.023354262 -0.009359642 -0.051857114 -0.008244303
0000c0 ac 38 48 3d 9d e2 a4 3d 1d 1d 96 3d bc 7f 10 bc
       0.04888217 0.080510356 0.07329772 -0.008819517
0000d0 81 b3 d0 bc c1 22 0e bd 2c 79 6a bd f7 9a 54 3c
       -0.02547622 -0.034701113 -0.057244465 0.0129764
0000e0 5a 3c a9 bd d3 73 95 3d f3 49 83 bd 60 51 95 bc
       -0.08263464 0.07297482 -0.06410589 -0.01822728
0000f0 e3 36 a9 3d b9 58 15 3d a7 73 37 3d ae 83 ab 3d
       0.08262422 0.036461566 0.04478803 0.08374725
000100 e3 4c ad 3c a5 90 12 bd db 2c 70 bd e9 4d 2b 3d
       0.021154827 -0.035782475 -0.058636528 0.041822348
000110 16 86 b5 bb 0c 07 5d 3c 04 5e 11 bd ee 1c 16 3d
       -0.005539666 0.01349045 -0.03549005 0.036648683
000120 e0 e7 09 bd 23 93 47 bd 4d 9d 00 bd a0 0e e8 bc
       -0.0336684 -0.048724305 -0.031400014 -0.028327286
000130 84 db c5 bc 51 26 03 bd 25 5d f7 bc 2a 87 3e bb
       -0.024152525 -0.032018963 -0.030195782 -0.0029072263
000140 8a 35 b6 bc b7 44 ad 3d e6 83 b0 bc 22 2e 08 3b
       -0.022242326 0.08460372 -0.02154727 0.002077945
000150 79 de a1 bc a4 22 32 bc 3e ec b4 3b fe 34 62 3d
       -0.019759404 -0.010872517 0.0055213263 0.05522632
000160 09 46 5f 3d f7 06 01 bd 94 84 14 3d a3 9d 3e 3d
       0.05451015 -0.031500783 0.03625925 0.046537053
000170 cd 3b 23 3c 06 e6 79 bd d1 77 f3 3c 0f 24 02 3d
       0.009962988 -0.061010383 0.029720219 0.03177267
000180 06 87 d9 3c d4 50 a4 bd 13 2d 7f bd eb b4 7d 3d
       0.026553642 -0.08023229 -0.062298845 0.061940115
000190 86 c2 9c 3d 86 5c 58 bd 51 bc 5e bd fc fe 98 bd
       0.0765429 -0.052822612 -0.05437881 -0.074705094
0001a0 6a 78 31 bd 4f 06 44 bb 06 3b 9b bd c5 69 89 bd
       -0.043327726 -0.0029910987 -0.07579617 -0.06709627
0001b0 18 43 a0 bd fc 8c b7 bc d9 bd 7a 3d b7 c9 64 3d
       -0.07825297 -0.022406094 0.06121621 0.055856433
0001c0 93 cb a7 bd 7e c2 49 bd 55 d8 a7 3a e0 4b aa bc
       -0.081931256 -0.049257748 0.0012805561 -0.020788133
0001d0 38 93 54 bd b6 df 37 bc 3e 95 d7 bc d0 3f 30 3d
       -0.05189821 -0.01122277 -0.026316281 0.043029606
0001e0 38 11 5e 3d 3b da 92 bd 81 40 11 3d ff 76 a1 bd
       0.05421564 -0.071705304 0.035461906 -0.07884025
0001f0 55 8f 13 bb 4e 7b 78 bd 1f c8 31 bd 15 14 8b bd
       -0.0022515852 -0.060664468 -0.04340374 -0.0679094
000200 85 cb 1d bb 69 08 ae bd b6 88 69 bd 53 06 0a 3b
       -0.0024077606 -0.08497698 -0.057015143 0.0021060898
000210 2f 84 f0 bc 7c e6 20 3d 31 ab 51 bd 40 b7 78 bd
       -0.029359905 0.039282307 -0.05118865 -0.060721636
000220 0b df 97 bd 13 49 81 3d 86 4a 02 3d 37 35 33 3d
       -0.07415589 0.06312766 0.031809352 0.04375192
000230 9e d4 c6 bc 99 df 1e bd 81 dd 9e 3d fa 2e 56 bd
       -0.024271306 -0.038787458 0.07757092 -0.052290894
000240 86 20 81 3d 12 47 ab 3d f6 54 a7 bd 12 00 7f 3c
       0.063050315 0.08363165 -0.08170502 0.015563982
000250 94 64 32 bd 2b 38 99 3c 8a 06 99 bd a1 b5 ac 3c
       -0.04355295 0.01870354 -0.0747195 0.021082701
000260 dc 4b 8c 3d a5 7e 4f 3c db b9 82 bc 88 39 27 3d
       0.068504065 0.012664472 -0.015957763 0.04082635
000270 70 92 80 bc 67 21 c5 3b e1 99 9a 3d 9a 75 82 bd
       -0.015694827 0.0060159448 0.07548881 -0.06370087
000280 80 ab b2 3d 15 2d 9e bd fb 36 38 bd d9 c7 6a 3d
       0.08724117 -0.077234425 -0.04497431 0.057319496
000290 98 49 29 bd e5 88 6e bc 67 ef 80 bd 20 13 ae bc
       -0.04132995 -0.014559005 -0.062956624 -0.021249354
0002a0 8f 76 86 bd f4 1a fc bc bb dd a1 3d 43 c1 a8 bc
       -0.06565582 -0.030774571 0.0790362 -0.020599967
0002b0 96 04 89 3d b6 85 cd 3c e3 39 aa bd f8 47 b3 3d
       0.06690328 0.025088172 -0.08311822 0.08753961
0002c0 99 18 81 bc 86 b5 e7 3c bf b5 6a bd fa 07 ff bc
       -0.0157588 0.0282848 -0.057302233 -0.031131733
0002d0 32 10 fa 3c 21 86 66 3c 13 02 c1 3c e1 a0 b7 bb
       0.0305253 0.014070065 0.02356056 -0.005603895
0002e0 52 16 ae 3c b3 80 96 bd 1c c0 c1 bc 22 72 b5 3c
       0.021250878 -0.07348766 -0.023651175 0.02214915
0002f0 3d a3 3c bd e0 2c aa bd 9a 38 c2 bb a9 2c ac 3d
       -0.046054114 -0.083093405 -0.0059271576 0.08406956
000300 8e df 82 bd 78 0f bd 3c c3 6f 8c 3d 31 03 1e 3d
       -0.06390296 0.023078665 0.06857254 0.038577262
000310 e0 7a 04 bc 15 13 8c 3d ec 6a 32 3d a7 7e 1d 3d
       -0.008085936 0.06839577 0.043559 0.038450863
000320 1f 52 89 bd 58 64 4c bd c5 83 97 3d 56 11 8b 3d
       -0.067051165 -0.049900383 0.0739818 0.06790416
000330 e1 6f 04 3d 03 88 53 3d 3d 80 1e 3d ba 5e 27 bb
       0.03233326 0.051643383 0.038696516 -0.002553864
000340 a9 6f 0b 3d 14 e2 97 3c 67 ee 42 3d df ac 8f 3d
       0.034042034 0.01854042 0.04759064 0.070153944
000350 9b ba 0b bd 24 84 20 3c 7b 61 2c bd 76 fa e1 ba
       -0.034113508 0.00979713 -0.042085152 -0.0017240781
000360 7a 4c 83 bd 44 40 8d bd 87 4f 8b 3c 6a 05 a4 bd
       -0.06411071 -0.06897023 0.017005695 -0.08008845
000370 3d 2f 53 bd 58 f5 85 3d 8d d9 9d 3d ee 7b 30 3c
       -0.05155872 0.06540936 0.0770751 0.010771735
000380 35 46 0a 3d 1d 9f 70 3d bb 6c a4 3d c5 8e 4e bd
       0.03375836 0.058745492 0.08028551 -0.050429124
000390 6e cb 9f bc 26 a9 7d ba bf 61 1e 3d 52 46 0e 3d
       -0.019506183 -0.0009676389 0.038667437 0.03473503
0003a0 7f 9f d7 3c 72 d7 b3 bd 63 e0 b0 3d 1e d1 9d bd
       0.02632117 -0.08781327 0.08636548 -0.077059016
0003b0 a2 6a fd bc e8 c7 80 3d 22 2e 10 3d 05 96 76 3c
       -0.030934636 0.06288129 0.035200246 0.015050416
0003c0 70 c0 82 bc 54 5f be bc ea 76 e4 bc 10 f4 8d bc
       -0.015960902 -0.023238815 -0.027888734 -0.017328292
0003d0 4d 79 5f bc 82 f4 15 bd db e3 cc 3c 6d 8b 30 3d
       -0.01363976 -0.036610134 0.025010994 0.043101717
0003e0 6c 88 5d 3d fd 40 22 bd a0 08 a5 bd 78 d9 8e 3d
       0.05408518 -0.03961276 -0.08058286 0.069750726
0003f0 ab 2e 0e 3d 06 5d ce 3a 4a d6 d8 bc 24 33 a2 bd
       0.034712475 0.0015744276 -0.026469368 -0.079199106

convs.0.nn.2.bias f4 [128]
000000 73 b5 3f bc a4 67 46 bd 8d b1 ba 3c 35 4c 17 3d
       -0.011700976 -0.048438683 0.022789741 0.03693791
000010 88 33 e4 3c 1d e2 32 3b 86 d8 ef bc 25 41 4e bd
       0.027856603 0.0027295419 -0.029278051 -0.050355095
000020 81 7a f9 bc 5f 8f 51 3d 34 0f ef bb 83 43 96 bd
       -0.030453922 0.05116212 -0.0072955135 -0.073370956
000030 6d cb e5 bb ad 85 1c bd e6 0d 5a 3d 77 8b b1 bc
       -0.0070127756 -0.03821342 0.05323591 -0.021672947
000040 bf 01 22 bd 8d 16 4b 3d 90 86 f4 3c f2 72 b2 3d
       -0.039552446 0.049582053 0.02984932 0.0871333
000050 a2 29 08 bd 11 53 ed bc 54 26 9f 3d c6 b6 84 3c
       -0.03324283 -0.028970273 0.077709824 0.016200434
000060 d5 f3 97 3d b1 55 3c bd d0 33 9f 3d 21 95 ad bd
       0.07419554 -0.04598016 0.07773554 -0.0847571
000070 05 b7 e9 3b 71 5c a9 bd 4a d3 8f 3d ec 2d 45 bd
       0.0071324133 -0.08269585 0.07022722 -0.048139498
000080 69 32 ba bc a8 f2 02 bd da e0 9d bd 2b 78 c1 3c
       -0.022729116 -0.031969696 -0.07708903 0.02361687
000090 20 99 69 3b 76 1a 75 3d 67 4b ac bb 82 0c 48 bd
       0.0035644248 0.05983969 -0.005258012 -0.048840053
0000a0 6e 6f 06 3d 62 40 f0 bc 74 3e e6 ba 31 e1 54 bd
       0.03282111 -0.029327575 -0.001756622 -0.05197257
0000b0 4a 56 4d bb b3 75 6d bd 49 d0 a1 bd ed 01 a0 bd
       -0.003133195 -0.057973575 -0.07901055 -0.07812867
0000c0 a3 cc 5b bd e7 41 3b bd d4 71 90 3d 79 be 66 3d
       -0.053661954 -0.045717146 0.07052961 0.056333993
0000d0 e0 67 5c bd 59 11 55 3d f3 3a b1 3d 69 fd e6 bc
       -0.05381 0.052018497 0.08653822 -0.028197007
0000e0 ea 83 23 3b c6 82 ab bd bf 8e d0 3c d8 e4 8a 3d
       0.0024950453 -0.083745524 0.025458692 0.0678193
0000f0 6d 3d b0 bc 1d 81 a1 3d 12 7f 9e 3d ea 71 ac bd
       -0.021513665 0.078859545 0.077390805 -0.08420165
000100 e8 76 94 3b e6 af 99 bd dd 32 fb 3b dd b0 9f 3d
       0.0045307763 -0.07504253 0.0076659755 0.07797406
000110 dc 3d 9d 3d 4e d3 6e 3d f5 72 83 bd 71 b5 5c bd
       0.07677814 0.058306985 -0.06418411 -0.053883974
000120 64 72 1c 3d b8 53 49 bd 5a 44 b3 3d 38 d8 07 3d
       0.03819503 -0.049152106 0.087532714 0.033165187
000130 cb 3a bf 3b 41 7c 54 bd 89 e0 e0 bb f7 1c b0 bc
       0.005835866 -0.05187631 -0.006862704 -0.021498187
000140 bc fa fa 3c db a5 19 3d cf a1 f1 3a d8 0a 27 3d
       0.030637138 0.037511688 0.0018435064 0.040781826
000150 b9 ce 6a bd ce 83 af 3d f3 dd 33 bd 2e 55 1f 3d
       -0.057326052 0.085700616 -0.04391284 0.038899593
000160 7e 50 9e bc 76 93 ee bc a5 a6 c5 bc c5 7e 9e 3d
       -0.019325491 -0.02912305 -0.024127314 0.07739023
000170 3d e8 09 3c 7b 42 b9 3c ea 9f a4 b9 f7 0a 06 3d
       0.008417186 0.022614708 -0.00031399663 0.0327253
000180 5b 33 ac bd 30 42 eb 3c 85 b6 8f bd 06 dd 41 3b
       -0.08408233 0.028718084 -0.07017235 0.0029581203
000190 19 45 a4 bd 22 d9 83 bc d5 d9 7d bc 22 95 cb 3c
       -0.08020992 -0.016094748 -0.01549383 0.024851386
0001a0 55 8b 7d 3d 18 11 7c bd 86 a5 21 bd c5 f7 11 bd
       0.061900456 -0.06153974 -0.039464496 -0.035636682
0001b0 39 66 9a bd a6 96 8b bd e9 3d 80 3d e1 99 8a 3d
       -0.07539029 -0.06815843 0.062618084 0.06767631
0001c0 84 63 aa 3d e6 2c 59 bd a9 ea f3 bc 42 57 58 3d
       0.08319762 -0.053021334 -0.02977498 0.05281759
0001d0 a2 ef 94 bd 02 9d 73 bd d0 32 8f 3d 7e f9 cd bc
       -0.07272269 -0.059475906 0.069921136 -0.025143381
0001e0 13 74 89 3d d6 5c 85 3d 07 e4 34 3d cb 89 73 bd
       0.067115925 0.06511848 0.044162776 -0.05945758
0001f0 8a 58 9b 3d 05 7d b2 bd 64 ac 9c 3d c0 df a6 bd
       0.07585247 -0.08715252 0.076500684 -0.08148146

convs.1.nn.0.weight f4 [128, 128]
000000 1d f6 ad 3c a2 87 4c bd 1d 07 d7 3b 18 2c 44 bd
       0.02123552 -0.049934037 0.0065621273 -0.047893614
000010 e4 0d bb bb 3e 5d b1 3d 7e 50 ed 3a c7 b6 ad 3d
       -0.005708443 0.08660363 0.0018105654 0.08482128
000020 19 8b 60 3c 4e 8c af bc 9c a7 9f 3d 42 da 6b bd
       0.013705038 -0.021429207 0.07795641 -0.057581194
000030 42 91 9d 3d d5 c7 81 bc 03 41 88 bd c1 bb 49 3d
       0.07693721 -0.015842358 -0.06653025 0.04925132
000040 47 2a 0c 3d d7 e2 24 3d 51 03 b0 ba f3 4b 6b bb
       0.034220006 0.040255394 -0.0013428723 -0.0035903424
000050 14 62 a0 bd d6 d9 17 bd 9e 28 b0 3c b3 ab cd 3c
       -0.07831207 -0.03707298 0.021503743 0.025106287
000060 db ed eb bc 56 4d 93 bd a4 e2 ac bd 21 95 96 3d
       -0.028799942 -0.07192485 -0.08441666 0.07352663
000070 9d fc 35 bc 9d 8c 99 3d f7 27 85 3d 71 da 9e bc
       -0.011107591 0.07497523 0.06501763 -0.01939127
000080 6f 5f e0 bb 9b d1 e9 3c ed 46 9f bd 6c a1 8a 3d
       -0.006847314 0.02854233 -0.077772 0.0676907
000090 65 7d 60 bd ec c7 7d bd 0d 33 92 bc 3a 00 47 3d
       -0.054807086 -0.06195824 -0.017846609 0.0485842
0000a0 7a dd 80 bd c0 04 87 bd c1 bf 94 3d da 2b b1 bd
       -0.06292243 -0.06592703 0.07263137 -0.08650942
0000b0 c5 21 d1 bc c7 94 f9 bc 28 fc f3 3b e7 c4 96 3d
       -0.025528798 -0.03046645 0.007445831 0.07361775
0000c0 65 f5 7b 3c a7 f2 9a bd c1 23 61 3d 50 6a 97 3d
       0.015378331 -0.075658135 0.05496574 0.073933244
0000d0 64 30 b5 bc ab 1b 9c 3d 02 a1 8b 3d d6 94 e1 bc
       -0.022117801 0.07622465 0.06817819 -0.02753679
0000e0 18 ce 1d 3d bf 17 99 ba 7c 98 54 3d 1a 1d 63 bd
       0.038526624 -0.001168005 0.051903233 -0.055447675
0000f0 21 60 7b 3d 0d c6 5e bd 3c 2e b8 ba 28 39 cc bc
       0.061370973 -0.054388095 -0.0014051865 -0.024929598
000100 56 8d b1 bd cf f1 b1 bc 50 79 09 bd 40 72 1c 3d
       -0.08669536 -0.021721749 -0.03356296 0.038194895
000110 71 c0 94 bd 06 07 93 bd 25 0a 13 bd b2 d4 b4 3d
       -0.07263268 -0.07179074 -0.035898346 0.08829631
000120 15 79 17 3d e8 e7 7d 3c 2b 02 b9 3c 87 5f 84 3d
       0.036980707 0.015497185 0.022584042 0.06463533
000130 d4 4a 91 3d 6a 61 4c bd 3c 15 6e 3d 76 66 2b bd
       0.070943505 -0.04989759 0.05812572 -0.04184576
000140 aa 68 ae bb 56 36 af bd ad ab a1 3d 3b fc 9c 3d
       -0.0053225355 -0.08555286 0.07894073 0.07665297
000150 2e 9a 5b 3d d8 1e 42 3d 36 2b 94 bd c9 b0 ab bb
       0.053613834 0.047392696 -0.07234804 -0.0052395803
000160 56 e8 c0 38 d4 8d fb bc 38 32 86 3d ce 33 84 bd
       9.1985494e-05 -0.030707277 0.06552547 -0.064551935
000170 c0 15 a7 3d 59 ba ef 3c 89 03 4a bc a9 8d 8f 3d
       0.08158445 0.029263662 -0.012329944 0.070094414
000180 2c d9 98 3d e4 23 b1 bd 28 64 e9 3c 54 fc 13 bd
       0.07463297 -0.08649424 0.028490141 -0.03612931
000190 15 63 0f bd 4e fc 67 bb 1a 56 39 3d c0 01 de 3c
       -0.0350066 -0.0035398188 0.04524813 0.027100444
0001a0 27 99 ab bd 38 1c 0d bd ac dd 1d bc 32 8b 27 3d
       -0.08378821 -0.03445074 -0.00963537 0.04090423
0001b0 4d df 1e bd 56 90 87 bc 76 ff 90 3c e3 0c c1 3c
       -0.038787175 -0.016548317 0.017699938 0.023565715
0001c0 25 6d 6c 3d 90 89 9f bd 9e 9e 97 3d 45 a8 09 bd
       0.057721276 -0.0778991 0.07403301 -0.03360774
0001d0 15 03 74 bd 5b f6 9f 3d eb 72 95 bc 8e 48 8d 3d
       -0.05957325 0.078106605 -0.018243274 0.06898604
0001e0 61 f8 f7 bc c9 83 4a bc f9 3d 4a bd f9 59 34 bd
       -0.030269803 -0.012360522 -0.049375508 -0.044031117
0001f0 d6 de 05 bd 0a 15 7c 3b f0 d6 42 bd ac 49 bd ba
       -0.032683216 0.0038464689 -0.04756826 -0.0014441512
000200 85 73 4d bd 22 c8 84 bd 32 37 93 3d ba ce 6d 3d
       -0.050158996 -0.06483485 0.07188262 0.058058478
000210 14 4d c7 3b e9 20 98 bd cb 60 27 bd 7f c0 9c 3d
       0.0060821865 -0.07428152 -0.040863793 0.07653903
000220 d1 66 31 3d 88 02 e2 3c 14 ed 4a bc 11 08 7d 3d
       0.043310944 0.027589098 -0.012385625 0.06177527
000230 ed 04 5a bc eb 16 43 bd 8a ff 14 3d 05 39 f3 bc
       -0.013306838 -0.04762928 0.036376514 -0.029690275
000240 83 a5 7e 3c 09 44 5a 3d 57 0d 1e 3d 51 bd 73 bc
       0.015542391 0.05328754 0.03858694 -0.0148766795
000250 df 32 00 3d 36 33 97 bd 34 6a b0 3d a5 7c 6e bd
       0.031298514 -0.073828146 0.08614007 -0.05822434
000260 de af e0 3a c9 0d 56 3d 71 fa 96 3d 8a e6 01 bd
       0.0017142256 0.05225924 0.07371987 -0.031714
000270 cc e7 88 bd 7a 48 92 bd 4c a5 80 bd e7 27 60 3d
       -0.06684837 -0.0714273 -0.06281528 0.054725554
000280 40 83 13 bd 60 29 90 3d a0 2c 0f 3d fe db 9a bd
       -0.03601384 0.07039142 0.034954667 -0.075614914
000290 9f aa 56 bd 9a e7 e2 bb 2f f2 bc 3c b6 9c 4d 3d
       -0.05240881 -0.0069245817 0.0230647 0.05019828
0002a0 39 b5 af bd fa e0 2e bd b8 c0 7b 3c 6d 95 1c bd
       -0.08579487 -0.042695023 0.015365772 -0.03822844
0002b0 06 b3 76 3c c2 f4 05 3c 67 be 97 3d 4e 90 9f bb
       0.015057331 0.008176031 0.07409363 -0.0048694974
0002c0 ad 8f 81 bc 0d f6 d1 3b 76 d0 49 3c 5b d6 50 bd
       -0.01581558 0.0064075054 0.012317767 -0.050985675
0002d0 0f 59 58 bd f3 dd 00 bd a1 cf 70 3d 56 a8 fc 3c
       -0.052819308 -0.031461667 0.05879176 0.030841988
0002e0 9b ba 83 bd 32 0e 85 3c 94 57 34 bd 71 85 2d bd
       -0.064320765 0.01624212 -0.044028834 -0.042363588
0002f0 92 16 90 bc da b0 f7 3c 28 84 14 3b ec 63 08 bd
       -0.017588887 0.030235697 0.002266178 -0.033298418
000300 fa 78 99 bd e0 bd a3 bd 01 65 04 bd ad b4 89 bd
       -0.074937776 -0.079952 -0.032322887 -0.06723914
000310 20 2e 10 bd d3 ed 24 bd 2c 53 1a 3d 5b 6d ae 3d
       -0.03520024 -0.04026587 0.037676975 0.08516952
000320 0e 47 ac bd a9 86 ac bc a3 82 46 3c 0c 8c 5d 3d
       -0.0841199 -0.021060305 0.012116107 0.054088637
000330 23 ed 4b 3d f9 d3 de bc f2 66 a4 bd 7e 7e 55 bd
       0.049786698 -0.027200686 -0.08027448 -0.052122585
000340 fa 9a 8b bc 7a 4b 0d bd a9 7f b0 bc bf 61 b4 3d
       -0.017041672 -0.03449581 -0.021545248 0.08807706
000350 2f 8c 9b 3d aa cf 15 3d 66 94 14 3d 7c c0 49 bd
       0.07595097 0.036574997 0.036274336 -0.049255833
000360 2b aa 6f bc 11 7e a1 bc 7d 56 ab bd 20 54 26 3d
       -0.014627974 -0.019713433 -0.08366106 0.04060757
000370 4d 64 5d bd 85 7f a5 3d c9 91 86 3d 06 a5 46 bd
       -0.054050732 0.08080963 0.06570775 -0.048497222
000380 8a 3a 62 bd 04 7e 0b 3d 7e e8 e9 3c 30 7f 85 bd
       -0.05523161 0.034055725 0.028553244 -0.065184
000390 71 96 40 bd c5 1b 99 3d 8f 72 27 bd 19 be a0 3d
       -0.047018472 0.07476 -0.040880736 0.07848758
0003a0 c0 1f 60 bc f1 71 12 3d 61 9d 45 bd 1e 18 60 3d
       -0.013679445 0.035753194 -0.04824579 0.0547105
0003b0 21 e6 65 3d 02 71 ab bb 6a 4f 9f 3d 4c 82 ab bd
       0.05612767 -0.0052319774 0.07778819 -0.083744615
0003c0 35 a6 ac 3b 7e b1 93 bc b1 90 13 3d ad 79 6f 3d
       0.005268837 -0.01802897 0.03602666 0.05846565
0003d0 1c cd 0e 3b c6 d8 d1 3c 3e 3f da 3c 63 c4 2e bd
       0.0021789735 0.025616061 0.026641484 -0.042667758
0003e0 fa ad aa 3d 09 bd e9 bc 00 c0 33 3c 40 ad ad 3d
       0.08333965 -0.028532522 0.010971069 0.084803104
0003f0 fc 07 ac 3c 5d 04 ac bd 88 ce 54 3d c9 7a 9a bd
       0.020999901 -0.0839927 0.051954776 -0.07542951

convs.1.nn.0.bias f4 [128]
000000 d5 49 b8 bc 7f cc 9c 3d 88 ff 6d bd c1 b3 24 3d
       -0.022496143 0.07656192 -0.05810502 0.04021049
000010 38 bf c6 bc 38 94 ae 3c 52 a6 b3 bd 8f 35 4d bd
       -0.024261102 0.02131091 -0.087719575 -0.050099906
000020 50 f6 0a 3d 38 d0 1d 3d 40 5c b0 bd d6 2a 68 3d
       0.03392631 0.03852865 -0.08611345 0.056681477
000030 7b 66 71 3d c1 3a 88 bd 3a ef 30 bd 87 c2 55 3d
       0.058935624 -0.066518314 -0.043196894 0.05218747
000040 96 f4 90 3d a1 ca 57 bc 6d a6 91 bc b1 0c 26 3b
       0.07077901 -0.013170869 -0.017779553 0.0025337155
000050 a3 5e 2a 3d b6 1f 39 bb df ce 5d 3d 1e d7 94 bd
       0.04159416 -0.002824766 0.054152366 -0.07267593
000060 7b 0c 42 bd fd 93 59 bc ab 33 bc 3c 1b 51 50 3d
       -0.047375184 -0.013279912 0.022973856 0.0508586
000070 19 8e 07 3b 4a 2e 90 bc 75 88 ca bb 9b 58 c9 bb
       0.0020684062 -0.017600197 -0.0061808177 -0.006144596
000080 c9 c6 a1 3d 51 54 47 3c d5 48 6a 3d 2e ae 83 bd
       0.078992434 0.012166099 0.057198364 -0.064297065
000090 a8 a8 20 3c 82 7c fb 3c d0 da a9 3d 2f e7 cb bc
       0.009805836 0.030699018 0.08293688 -0.02489051
0000a0 93 47 81 3d c6 41 37 3d 31 b5 97 3d 9b b0 9f bd
       0.0631248 0.04474046 0.074076064 -0.07797357
0000b0 2c bd db bb c8 5a 64 3d fa 56 f3 3c 70 0a a0 bd
       -0.0067059007 0.05575064 0.02970456 -0.07814491
0000c0 f6 0e 4c 3c 0c b3 8c 3b d5 13 3a 3c 9f 9d 4e bd
       0.012454739 0.004293805 0.011357267 -0.050443288
0000d0 05 b8 d3 bc 79 a2 0f bd 3a 9f 00 ba a4 0c ad 3c
       -0.025844583 -0.035067055 -0.0004906539 0.021124192
0000e0 0a 16 29 bc 82 5a 81 3d 5e 8d ac bd 54 37 94 bd
       -0.010320196 0.06316091 -0.08425401 -0.072371155
0000f0 3d 1c c2 3c 25 6e aa 3d 23 75 20 bd 0b c6 80 bd
       0.023695106 0.0832179 -0.03917421 -0.06287774
000100 8c 75 c3 bc 77 f1 ac 3c e4 5f 70 bd 87 af 0d 3c
       -0.023859762 0.021111233 -0.0586852 0.008647806
000110 85 99 74 3d 32 e7 b1 3c b0 e3 18 3d 15 f4 81 bd
       0.05971672 0.021716688 0.037326515 -0.06345383
000120 f3 aa 2e 3d 3d 5b ec bc 18 9f c7 bc e4 ef ad 3d
       0.0426435 -0.0288521 -0.024367854 0.08493021
000130 c3 87 3a bd 0f 75 90 3c 0e 54 b3 bd b8 97 85 bb
       -0.04553963 0.017633943 -0.087562665 -0.004076924
000140 dc 9f 68 bd 4e 79 61 3d 91 75 36 3b 98 4f b3 bd
       -0.05679308 0.055047326 0.002784107 -0.08755416
000150 16 2f b0 bd 8a 91 b1 3d 95 db 1a 3d 9f f1 70 3d
       -0.08602731 0.086703375 0.037807066 0.058824178
000160 34 58 8d 3d 93 6d 7a bd 5b f6 0e 3d fa 82 ee 3c
       0.06901589 -0.061139654 0.03490291 0.029115189
000170 64 2e fd 3c a0 8e c4 3c ac da a6 3d 82 09 5c bd
       0.03090591 0.02399379 0.08147177 -0.053720005
000180 28 6e 4f 3d 65 d5 ea 3c 85 20 12 bd 33 7e 9b bc
       0.050642163 0.028666208 -0.035675544 -0.018981075
000190 61 6d 6a 3d 37 d3 20 3d 56 34 91 3b 5b 5d b4 bd
       0.057233218 0.03926393 0.0044312878 -0.08806869
0001a0 66 d7 a6 bd fc 9d 2e bd b4 49 05 bd 42 6c 82 3c
       -0.08146553 -0.042631134 -0.032540992 0.015920762
0001b0 24 0e ad bd 54 28 61 bc f5 ae 47 bc 85 56 4c bc
       -0.08449963 -0.013742525 -0.012187709 -0.0124718
0001c0 51 fe 0f 3d 12 99 ac bd 88 32 4d 3d 82 c0 45 3d
       0.035154644 -0.08427633 0.05009702 0.048279293
0001d0 0e 15 97 bd be 6e 5a 3d 32 2b 88 3c 19 e0 e1 3b
       -0.07377063 0.05332827 0.01662216 0.0068931696
0001e0 e4 2b 3e bd a2 27 50 bc be cc 17 bd c8 e1 e9 3c
       -0.046428576 -0.012704762 -0.03706049 0.028550044
0001f0 53 08 66 bd ae 71 a7 bb ef e4 55 3b 60 4d 6c 3c
       -0.056160282 -0.005109987 0.0032637676 0.0144227445

convs.1.nn.3.weight f4 [128, 128]
000000 3a 79 1b bc 8a ac 83 bd 56 3c 6d 3d 37 26 af 3d
       -0.009489352 -0.064293936 0.05791887 0.08552211
000010 f4 40 a0 bd 49 47 80 3d 3c 7c c7 3c f9 16 33 3d
       -0.07824889 0.062635966 0.024351232 0.04372308
000020 ba a4 90 bd ac c7 f3 bb 14 dd 18 3d 45 ed 01 3d
       -0.07062669 -0.007439574 0.03732021 0.03172042
000030 7c a4 d1 3c 92 2f 53 bd 51 d3 ae 3d 6a 88 29 3d
       0.025591128 -0.05155904 0.08536399 0.04138986
000040 6c 57 60 3d 57 0a 85 3d b8 d2 9a 3d fc 86 9a bc
       0.054770872 0.06496113 0.07559723 -0.018863194
000050 33 b3 10 3c 4a 77 6a bc d4 a2 88 bc 20 4a b3 bd
       0.008831787 -0.014310667 -0.016679205 -0.087543726
000060 61 e8 96 bc 9b c1 1c bd d4 b3 d6 bc fb 4f 8f bc
       -0.018421354 -0.038270574 -0.026208796 -0.017494192
000070 e3 da f5 3c bf 31 64 bd f2 4b 48 bd 73 36 ea 3c
       0.0300116 -0.055711504 -0.048900552 0.028590417
000080 26 ce 93 bd 61 d1 88 bd f5 d9 d3 3c 8e 62 a4 bd
       -0.07217054 -0.06680561 0.025860766 -0.0802661
000090 57 c3 92 3d e4 a4 b4 bc 0b d8 7b bd e4 73 25 3d
       0.07166164 -0.022051282 -0.06148533 0.040393725
0000a0 4a b6 cb 3c 99 dc e3 3c fa 86 9a bc 05 cd 95 bd
       0.024867196 0.02781515 -0.01886319 -0.07314495
0000b0 99 eb 09 3d 65 bf 13 3d 06 53 00 3d e9 8e 65 3b
       0.03367195 0.0360712 0.031329177 0.0035027808
0000c0 ae 1a 16 bd f5 c2 0a bd 80 89 19 3d cc e8 09 bc
       -0.036646537 -0.03387733 0.037484646 -0.0084173195
0000d0 86 ca 41 3d 75 9b 74 bd 7f 33 34 bd 64 96 0c bd
       0.047312282 -0.059718568 -0.043994423 -0.03432311
0000e0 d4 1c 85 3c 3e a8 10 3b df 57 24 3d 2d 42 a0 bd
       0.016249098 0.0022072936 0.040122863 -0.07825122
0000f0 f2 2b a0 3b 2f ed 06 3d 67 82 d9 3c 15 00 dc bb
       0.004888051 0.03294104 0.026551438 -0.006713877
000100 bf e6 66 bd af 73 06 bd 35 f5 7e 3b 15 f6 b1 3d
       -0.0563724 -0.03282517 0.003890348 0.086895145
000110 d5 85 e6 3b 48 9c f3 bc cc a8 97 bd db 03 e5 bc
       0.007034997 -0.029737607 -0.07405242 -0.02795594
000120 65 5f 3c bb 62 a5 ff bb b1 01 94 3d fd 28 89 bd
       -0.0028743383 -0.0078016976 0.07226885 -0.06697271
000130 26 0d 17 3d 41 56 16 3d 3c b3 a0 3d 38 44 55 bc
       0.036877774 0.036703352 0.07846686 -0.013016753
000140 cd db 69 bd 11 1f 8b 3d d3 35 67 3d ea 8f 53 3d
       -0.057094384 0.06793035 0.056447815 0.05165092
000150 ac a8 e2 3c 8b a9 6f bd d8 39 a3 bc 14 96 ac 3c
       0.02766832 -0.0585113 -0.019925043 0.021067657
000160 76 12 f7 bc 96 5f 6c 3c 74 98 b0 39 a2 eb 3d 3d
       -0.03016017 0.014427086 0.00033682922 0.046367295
000170 56 73 af 3d e7 46 88 3d 58 8b db 3c e7 28 47 3d
       0.085669205 0.066541485 0.026799843 0.048622992
000180 6f f6 78 3d 61 84 42 3d 6f 2b eb bb 12 ee 98 3c
       0.060781892 0.047489528 -0.0071768085 0.018668208
000190 ed b0 5a 3d 9f 9c e8 3c 8e 23 db 3b 02 69 af 3d
       0.053391386 0.028394995 0.006687588 0.085649505
0001a0 63 86 54 bd c3 44 92 bc ed 5a 1c bd 0b 2e d7 bc
       -0.051885974 -0.017855054 -0.03817265 -0.026267072
0001b0 71 68 d0 3c f6 91 cd bc 69 71 ab bb a3 87 27 3d
       0.025440427 -0.025094014 -0.0052320254 0.040900838
0001c0 0c 33 08 bd 24 85 89 bd 8f 0c 85 bc 51 7d d7 b8
       -0.033251807 -0.06714848 -0.01624134 -0.00010275341
0001d0 56 40 a2 bd 5b 3e 43 3a 2b ce 22 bd db 4f 42 3c
       -0.07922427 0.00074479514 -0.0397474 0.011859859
0001e0 7c 2a 5d bd 64 21 58 bd 54 bb 9d bd 3e c3 67 3d
       -0.053995594 -0.05276622 -0.07701746 0.05658268
0001f0 46 0e e2 3c b0 89 9a 3d 94 6e 45 bd 67 dc 95 3c
       0.027594697 0.07545793 -0.04820116 0.018293573
000200 71 8a 6b bd 01 a1 86 bd 59 2d 97 bd 27 c7 2b 3d
       -0.057505075 -0.06573678 -0.07381696 0.041937973
000210 2e 7b 39 bd 85 62 65 3c d2 36 b2 bd 0b 51 30 3c
       -0.04528349 0.01400054 -0.087018624 0.01076151
000220 d3 f0 ae 3d 17 73 04 3d 92 82 04 bc 30 2e 23 bc
       0.08542027 0.03233632 -0.008087771 -0.009959742
000230 22 1b 71 3d a5 36 0b 3d dc 9c 85 3d ad 3b 91 3c
       0.058863766 0.03398766 0.06524059 0.017728651
000240 67 4e b0 bd af 47 b5 bb 85 17 b2 3c 89 06 8c bc
       -0.08608704 -0.005532227 0.02173973 -0.01709296
000250 a0 b9 a4 3c ae 8e 1c bc 45 de 79 3d fb ee 65 bc
       0.020108044 -0.009555502 0.06100299 -0.014034028
000260 1b 1e 5b 3d 92 a9 4d 3d 65 0b 17 bd 9e bf 13 3c
       0.053495508 0.050210543 -0.0368761 0.009017853
000270 d6 60 86 bd 66 b8 98 3d 8c af 8a 3d 26 07 80 3c
       -0.06561439 0.07457046 0.06771764 0.015628409
000280 b1 22 65 3d 88 75 01 bd 1a 13 d3 bb 53 d4 78 3d
       0.055941287 -0.031606227 -0.006441486 0.060749363
000290 55 24 ad bd 37 b3 25 bd f0 32 91 38 5e 91 2e bd
       -0.084541954 -0.040454116 6.923627e-05 -0.0426191
0002a0 ba 3f 6c bd d2 a3 89 3d 67 43 14 3d c9 1d 18 3a
       -0.057677962 0.06720699 0.036197092 0.0005802778
0002b0 fa 83 58 bb b2 89 85 3b 18 5f b1 3d 9b 91 63 3d
       -0.0033037649 0.0040752525 0.08660716 0.055558782
0002c0 b0 30 9f bc fd 1a 85 bc 00 e4 23 3d 4e fd a3 bd
       -0.019432396 -0.01624822 0.04001236 -0.080072984
0002d0 97 f3 69 bb f8 f7 38 bc d5 1b 58 3d 67 44 a7 bd
       -0.003569817 -0.011289589 0.052760918 -0.081673436
0002e0 d0 d8 db 3b 59 9a 92 3d c9 fc a0 bd 3b 12 7c 3d
       0.0067091957 0.07158346 -0.07860715 0.061540823
0002f0 0a d8 89 bd 01 87 9a 3d 42 38 9e 3d 75 8c ff 3b
       -0.06730659 0.07545281 0.07725574 0.007798726
000300 77 b8 68 bd 17 a2 ad bd 7a d5 8b b9 4f 4b a2 3d
       -0.056816544 -0.08478182 -0.00026671198 0.0792452
000310 85 8c ff 3b 6d 2c 9f bd 40 f2 b3 3d 5b 00 eb bc
       0.0077987337 -0.077721454 0.0878644 -0.028686693
000320 0a 24 2b 3c 4d 27 02 3d ea d8 83 3d 83 da 15 bd
       0.010445604 0.03177576 0.064378574 -0.036585342
000330 95 7a 4c 3c 57 05 0b 3d 8b f1 58 bd 8a d5 96 3d
       0.012480398 0.03394064 -0.05296473 0.07364948
000340 23 6e 1b 3c 13 ce da bc 0c 81 62 3d 29 99 b1 3d
       0.009486708 -0.026709592 0.05529885 0.08671791
000350 30 73 92 3d c0 db ab bb 25 93 31 3d e5 a4 51 bd
       0.071508765 -0.005244702 0.04335322 -0.051182646
000360 b7 18 2e 3d d0 14 83 3d 96 70 aa bd b9 0a 65 bd
       0.04250404 0.06400454 -0.08322255 -0.05591843
000370 a2 25 94 3d e2 ed a5 bc 7b b3 d5 3c 73 f7 52 bd
       0.072337404 -0.020255033 0.02608656 -0.051505517
000380 11 55 a9 bd 29 ac 96 3d cb a6 47 bd d2 df a4 bd
       -0.08268178 0.07357056 -0.04874305 -0.08050503
000390 8e 85 4e 3d d8 1b 06 bd 48 5d 96 3d a8 92 84 bd
       0.050420336 -0.032741398 0.07342011 -0.06473285
0003a0 eb 9a 53 3d 94 3e d3 bb 1c 07 43 3d 19 94 97 bd
       0.051661413 -0.006446669 0.047614202 -0.07401294
0003b0 f6 43 80 bd 55 47 03 3d 06 d2 84 bc 2e b4 4c bd
       -0.062629625 0.03205045 -0.016213428 -0.04997652
0003c0 52 44 9a 3d 50 4d 6c 3d ee 8a a3 3d fb 51 67 3d
       0.07532562 0.05769092 0.07985483 0.056474667
0003d0 bb 88 8f bd 78 b2 22 3d 75 1d 55 3d e8 7d ae 3d
       -0.07008501 0.039720982 0.052030046 0.085201085
0003e0 a9 a9 86 3d eb 33 86 3d f3 ef 84 bc 6e d5 3c bd
       0.06575329 0.06552871 -0.016227698 -0.04610198
0003f0 c0 1c 87 bd 96 0b 08 3d 09 1d 1a bd 63 37 44 3d
       -0.065972805 0.033214174 -0.037625346 0.047904383

convs.1.nn.3.bias f4 [128]
000000 f3 43 99 3d 3b e0 2b bd 2d c9 01 bd 6d a5 5a bd
       0.074836634 -0.04196189 -0.031685997 -0.05338042
000010 99 15 6b bd 17 fb 38 bd 0e 7b 80 ba 2d 2e ab 3d
       -0.057393644 -0.045161333 -0.0009802298 0.08358417
000020 3c 5b 39 3d b5 18 a0 bd 81 ac 64 bd 4d c7 33 bd
       0.045253024 -0.078172125 -0.055828575 -0.04389124
000030 a6 5b 78 bc 8a d3 a7 bc f6 30 24 bd f3 53 31 3c
       -0.015158569 -0.020486612 -0.040085755 0.010823238
000040 bb 3b a2 3d c6 47 92 bd 02 53 bd bc 0c 79 9e 3d
       0.07921549 -0.07142596 -0.02311087 0.077379316
000050 6f 38 1d bc 22 7e 31 bd 2d ef 5c 3d b4 56 8f bd
       -0.009595974 -0.04333318 0.053939033 -0.06998959
000060 43 7c 8d bd be bc 7a bc fa 46 24 3c 0b be f1 3c
       -0.06908467 -0.015303789 0.010026688 0.029509565
000070 4e 53 90 bd f9 7b 7e 3c 94 53 89 3d 18 06 2a bc
       -0.07047139 0.015532487 0.067053944 -0.010377429
000080 ff 24 53 3d 1a 2e d8 3c 37 ab f2 3c 9c 9b 59 bd
       0.051548954 0.02638917 0.029622657 -0.053126916
000090 d0 3a 3c bd a3 65 80 3c 1e 32 87 bd 56 da 5c 3d
       -0.045954525 0.015673464 -0.06601356 0.05391916
0000a0 e1 5b b3 3d 02 ef 70 3d dd 4c f1 bc ea fc 61 bb
       0.08757759 0.058821686 -0.029455597 -0.0034483024
0000b0 c3 48 3f 3d a5 34 61 bd 63 ea de 3c 65 a9 7e bd
       0.04670025 -0.054981846 0.027211374 -0.062173266
0000c0 ff 6b 20 bd ed 5e 99 3c cd 29 b2 bd ab dc 66 3c
       -0.039165493 0.018722022 -0.08699379 0.014090697
0000d0 3f d8 86 3d f8 8f 3b bd 93 d3 9f bd f0 12 0e 3d
       0.065842144 -0.045791596 -0.078040265 0.03468603
0000e0 31 55 8e ba 59 8e 24 bd e7 01 6c bd 50 63 a6 3d
       -0.0010859129 -0.040174816 -0.057619 0.08124411
0000f0 c1 6c 0b bd 49 5b 6b 3d c6 57 60 3d a2 c0 5d ba
       -0.034039263 0.057460103 0.054771207 -0.00084591855
000100 30 46 88 3d cd 67 b2 3c 51 7f 06 bd ed cc 46 bb
       0.06654012 0.021778012 -0.032836262 -0.0030334548
000110 82 67 45 bc 67 cc 22 bd b0 aa 2c bc f4 ae a0 bd
       -0.012048604 -0.039745715 -0.010538742 -0.0784587
000120 f6 c8 06 bd d1 1a 32 3d b3 d7 71 bd 6d 50 20 3c
       -0.032906495 0.043482605 -0.059043597 0.0097848
000130 63 d4 3f bc 3c f7 29 3d 25 38 31 bd fc 8f 8b bd
       -0.011708352 0.041495547 -0.043266434 -0.06814572
000140 04 c7 51 bc 4a 1a 80 3d 7c 15 93 bd c4 54 3b 3c
       -0.012803797 0.06255014 -0.07181832 0.011433784
000150 2d 59 9e bd 66 b8 01 ba 35 25 b2 3b a7 88 99 3d
       -0.07731853 -0.0004948437 0.0054365643 0.074967675
000160 b2 87 93 bd a7 d4 44 3d 37 1f 4d 3d 9b 7f b0 bd
       -0.07203616 0.048054364 0.050078597 -0.08618089
000170 ac bb 4a 3b 9d 77 11 bd bd f1 89 bd 3c 30 08 bd
       0.0030934615 -0.035514463 -0.06735561 -0.033249125
000180 bf 82 55 3b 9c 11 9a 3d a6 cf 9d bd a7 40 a0 bd
       0.0032579151 0.0752289 -0.077056214 -0.078248315
000190 64 98 92 3d 6d 7a 7f bd 92 8b 5e 3d c4 48 f9 bc
       0.071579725 -0.062372614 0.054332323 -0.030430205
0001a0 10 8f 40 3d 83 e6 41 3d 70 cf 18 3d e1 30 86 3c
       0.047011435 0.047338974 0.037307203 0.01638073
0001b0 34 59 9b 3c 54 95 2f 3d 83 7c 28 bd 5b 6c 20 3c
       0.018963434 0.04286702 -0.04113437 0.009791459
0001c0 c7 c1 a5 bd cd 89 dd 3c 8f 5b 51 3c 2e 3f b0 3d
       -0.08093601 0.027043248 0.012778177 0.086058006
0001d0 27 78 82 bd fe c1 d1 3c 45 31 9c 3c ba 10 36 3d
       -0.063705735 0.025605198 0.019066462 0.044449545
0001e0 53 7c c7 3c 34 1f 11 3d 46 8f 93 3d a2 a0 34 3d
       0.024351275 0.03543015 0.072050616 0.044098504
0001f0 0c a2 4d bc c3 f6 a4 bd f7 58 16 bc 2c 25 a0 3c
       -0.012550842 -0.080548786 -0.009176484 0.019548975

convs.2.nn.0.weight f4 [256, 128]
000000 4a b9 4b bd e6 8a 89 bd d2 cf 45 bd 7b 2f 8d 3c
       -0.049737252 -0.06715946 -0.048293896 0.017234555
000010 ad 48 89 3d 1b 5d 10 bd 5e 63 60 3d 82 ed b2 3d
       0.06703315 -0.035245042 0.054782264 0.08736707
000020 db 2b 12 bd 1b 27 7a bd dc b4 7a 3d 10 86 e7 3c
       -0.035686355 -0.06107245 0.061207637 0.028262168
000030 03 87 55 3c 23 3b 2a ba 47 08 fb 3c f7 24 73 bd
       0.013032678 -0.00064937974 0.030643595 -0.059361424
000040 d8 10 84 3d f2 3e af bd 29 e4 59 3d 0c 9c 58 bc
       0.06448525 -0.08556928 0.053196106 -0.013220798
000050 ae 5a 1c 3d cf 93 5b bc d0 b8 e8 3c 14 ed 36 3d
       0.038172416 -0.0134019395 0.028408438 0.04465969
000060 a4 6b 79 bd 72 0b bd bb 1f 35 b1 3d 4a fd 6f 3d
       -0.06089367 -0.0057691867 0.0865271 0.058591165
000070 6b 72 92 3c 9c 52 33 bd 72 ec 8b bd 59 1c 85 3d
       0.017876824 -0.043779954 -0.06832208 0.064995475
000080 4f f1 92 3d 68 22 5f 3d b0 24 8f 3d 5d 7b a2 bd
       0.07174932 0.05447617 0.069894195 -0.07933686
000090 fc f8 5e 3d aa 27 f2 bb dc bd 0d bd b4 63 7f 3d
       0.05443667 -0.007389982 -0.034604892 0.062350944
0000a0 24 92 e4 3c f5 0a e6 3c dc 1e 4b bd bc e2 0e 3d
       0.027901717 0.028081397 -0.049589977 0.0348842
0000b0 1d 74 34 bd 34 ce 91 3d 63 48 02 bd a4 5f a0 3d
       -0.044056047 0.07119408 -0.031807315 0.07830742
0000c0 6c 09 7c 3c 45 4c ac bd f1 f3 77 bd 03 76 78 bc
       0.015383106 -0.08412985 -0.060535375 -0.015164855
0000d0 27 3f a3 bc a0 dc 4e 3b e7 63 75 3d ff 73 85 3d
       -0.019927574 0.0031564608 0.059909727 0.06516265
0000e0 04 ca 9d 3b 5f 70 55 bb 08 38 d3 bc 2a 31 d9 3c
       0.004815342 -0.00325682 -0.025783554 0.026512701
0000f0 d3 19 cd 3c 99 86 17 bd 96 cb 65 bd 68 d8 81 bd
       0.025036728 -0.036993597 -0.056102358 -0.06340104
000100 af c0 67 bd 1a 5d 02 3d 95 79 16 bd 83 fe 98 bd
       -0.05658024 0.03182707 -0.036737043 -0.07470419
000110 36 87 7b 3d 87 3c 80 bc 97 b1 1a 3d 6a df 99 3d
       0.061408244 -0.015653862 0.03776702 0.07513316
000120 25 86 af bd 55 ab 3b 3c 95 31 b4 3d 54 1a 89 bb
       -0.08570508 0.011454423 0.087985195 -0.0041840468
000130 a0 72 3d 3c 64 48 6f 3c 75 76 a0 bc 2a fb 62 bd
       0.011562973 0.014604662 -0.019587735 -0.05541531
000140 2a 11 91 bd a9 bb 66 bd f2 b9 5e 3d cd a1 ce bc
       -0.07083352 -0.05633131 0.05437655 -0.025223637
000150 7a 06 3b 3c aa ab 87 3c 49 1c 7e bd 17 25 51 3d
       0.011415118 0.016561348 -0.062038694 0.051060762
000160 41 1d 4a bd a9 44 16 bc a0 fb 40 bc da f2 3e 3d
       -0.049344305 -0.009171643 -0.011778742 0.04661832
000170 02 77 cb bc dc 6a b1 bd 21 72 af 3d b1 61 ae bd
       -0.02483702 -0.0866296 0.0856669 -0.08514727
000180 cc db 3d 3b 0e a8 86 3d 5b ab b0 bd cd 62 97 3d
       0.002897012 0.06575023 -0.086264335 0.07391892
000190 9e 8f 98 3d 35 86 00 bd 93 8b b1 3c 9e 86 a5 bd
       0.07449268 -0.03137799 0.021673 -0.08082317
0001a0 02 8c b8 3c db c6 a6 bd d2 a8 0c 3d d1 2d b2 3d
       0.022527698 -0.081433974 0.034340687 0.08700145
0001b0 f3 96 ed bc dc 43 a8 bd 2e 21 71 bd 72 41 50 bd
       -0.029002642 -0.08216068 -0.058869533 -0.050843664
0001c0 58 42 c1 3c 59 2e 1a bd a9 e3 0d 3d bd 3e 4f b8
       0.023591205 -0.037641857 0.03464094 -4.9411075e-05
0001d0 bd 23 92 3c c9 b3 a7 bd 85 e5 3f 3d f8 31 d5 3c
       0.017839307 -0.08188588 0.046849746 0.026024804
0001e0 12 a3 5f 3d 94 69 0d 3d 26 fa 95 3d 24 93 aa bd
       0.054598875 0.034524515 0.07323103 -0.08328846
0001f0 6f 7d 8d bd 05 fc 76 3d 06 4f 91 3d b2 f1 b3 bd
       -0.0690869 0.06029894 0.07095151 -0.08786334
000200 29 f0 94 bd 1f 80 42 bd 05 80 27 3d 27 48 91 3b
       -0.072723694 -0.047485467 0.040893573 0.00443365
000210 9d 47 8f bd fd 55 0d bd db 58 5d 3d 6f dc 33 3d
       -0.06996081 -0.034505833 0.054039817 0.043911394
000220 b5 8b 0b bd f3 7f b1 bc ce 71 a7 3d 21 4e 9e bd
       -0.034068782 -0.021667456 0.081760034 -0.07729746
000230 6d 65 a8 3d 47 7b 81 3c 95 93 a0 3d 29 c1 a2 bd
       0.082224704 0.015805854 0.07840649 -0.079469986
000240 92 1b 4e bc 08 b9 5a 3d c8 e4 9d 3b 8a 1a 03 bd
       -0.012579815 0.053399116 0.0048185326 -0.03200773
000250 90 08 36 3d 39 8c a3 bd 4b a7 a5 3c ba d4 6b 3d
       0.04444176 -0.0798573 0.020221373 0.05757592
000260 68 b6 e0 bc 27 b6 69 bb 9f 2f c7 bc 5e 0b 3a bb
       -0.027430728 -0.003566155 -0.0243147 -0.0028388123
000270 a8 6c 47 bd 00 8c 92 3d ad 88 1f bd 63 9c 36 bc
       -0.048687607 0.07155609 -0.038948704 -0.011145684
000280 4d f4 8a bc 3e 44 7d bd f4 dc cb 3c f4 dc 14 3d
       -0.016962195 -0.06183266 0.024885632 0.03634353
000290 06 48 b5 3c 44 04 52 bd 01 6d 58 3d d0 e8 30 3d
       0.02212907 -0.0512736 0.05283833 0.043190777
0002a0 2b 0f 34 3c 50 fe 60 3d 6d 10 b6 3c 71 b9 a7 bd
       0.010989944 0.05493003 0.02222463 -0.08189667
0002b0 4c 94 a9 3a 1f 5a ac 3d ba 7c 9e 3c e5 93 ce bc
       0.0012937873 0.08415627 0.019346584 -0.025217006
0002c0 b6 e1 26 3d db 78 a8 bd 06 57 b3 bc c5 fe db 3b
       0.0407426 -0.08226176 -0.021892082 0.0067137205
0002d0 b4 eb 8f 3d a9 94 7b bd 75 22 4e bd 1a e7 06 bb
       0.07027379 -0.06142107 -0.05032583 -0.0020584525
0002e0 38 74 2f bd ee a8 2f 3c d3 69 93 bd f2 ac d2 3b
       -0.042835444 0.010721428 -0.07197919 0.006429308
0002f0 7a c9 73 bc fc 93 60 bd b1 bc 6d bd 9b e7 a1 bd
       -0.014879579 -0.05482863 -0.05804128 -0.07905503
000300 9f c1 06 bd a6 fe 27 3d 51 8c 9e bc 16 2d 4a bd
       -0.032899495 0.041014336 -0.019354017 -0.049359404
000310 91 ab df bc 9b 95 3c bd c3 94 4e 3d 04 b4 0b bc
       -0.027303489 -0.046041112 0.05043484 -0.008526806
000320 82 ca e9 bc a2 d3 17 bd 3b 6a 28 bd b5 e5 f6 3c
       -0.028538946 -0.037067063 -0.041116934 0.03013883
000330 55 08 94 3d 51 3b 9e 3d 16 27 3d 3c d9 cf a7 bb
       0.07228152 0.077261575 0.011544963 -0.005121213
000340 8a 47 a8 3d 6b c4 cf 3c 85 de 85 bd 71 b5 16 bd
       0.0821677 0.025362214 -0.06536583 -0.03679413
000350 b7 d5 91 bd 79 97 d2 3c a9 fc 4a 3d 83 a5 15 bd
       -0.07120841 0.025706993 0.04955736 -0.036534797
000360 bc 76 68 3d 86 f2 ef bb 9d e4 af bd 29 52 7f bd
       0.05675386 -0.007322612 -0.085885264 -0.062334213
000370 d9 de 6e 3d 67 56 19 3d d5 87 5d 3d ee af df bc
       0.058317993 0.037435915 0.054084618 -0.02730557
000380 db d3 c7 bc 1c af 86 3d 1c 04 91 bb 35 fa 54 bd
       -0.024393013 0.06576368 -0.0044255387 -0.05199643
000390 23 54 6b bd 00 c3 73 bd c3 60 68 bd 67 27 50 bd
       -0.057453286 -0.05951214 -0.056732904 -0.050818827
0003a0 7f 17 82 bd 61 fa fa bc c7 0f 87 bd 79 1a 0f bd
       -0.06352138 -0.030636968 -0.06594806 -0.034937356
0003b0 d0 57 96 bd 38 6b 40 3d 94 bd 18 3d cf 61 16 3d
       -0.07340968 0.04697725 0.03729017 0.03671437
0003c0 1d 15 5b 3c 3e 50 0b bd 9d 5c 52 3d ef 99 67 bd
       0.013371733 -0.03401207 0.051357854 -0.056543287
0003d0 d3 28 77 3d a1 44 3d bd c8 34 b2 3d 49 d8 a7 3d
       0.060341667 -0.046208028 0.087014735 0.0819555
0003e0 49 1e 16 bd 14 5d 42 3d 65 fd 6a ba b8 ce a1 bd
       -0.036649976 0.047452047 -0.00089641503 -0.079007566
0003f0 e6 8e df 3b de 8a 84 bb a5 d1 20 bd 5d eb a3 3d
       0.0068224547 -0.0040448746 -0.039262433 0.08003876
