dev/hyperparameter_tuning/trials/tuning_250128_2030/trials_logs/trial_2/trial_2_model.pth (torch, 997936 bytes, 18 tensors)

convs.0.nn.0.weight f4 [128, 1]
000000 a0 8f 55 bf 5c 75 6c bf f8 a2 ba be fc 30 1e bf
       -0.8342228 -0.92366576 -0.3645246 -0.61793494
000010 be bf 0c 3f 38 9b 3c be d6 8d 75 bf 40 d7 b4 3e
       0.54980075 -0.18418586 -0.9591955 0.35320473
000020 14 63 10 bf 7f 96 7c 3e 50 32 46 be 56 29 49 3f
       -0.5640118 0.24666785 -0.1935513 0.785787
000030 a4 88 31 bf 32 f1 27 bf 94 b2 9e be 28 ea 03 bf
       -0.6934912 -0.6560241 -0.3099562 -0.5152917
000040 1c 6d 5f bf bf 31 8a 3d 84 26 71 bf a4 f8 0e bf
       -0.8727586 0.067477696 -0.94199395 -0.55848145
000050 6e 66 12 bf 1e cc 38 bf ef 33 8d 3d ee f4 33 3f
       -0.57187545 -0.7218646 0.06894671 0.7029561
000060 be c6 39 bd 41 69 ac 3d 58 8d 1b 3f b4 27 9d 3a
       -0.04535555 0.08418513 0.6076255 0.0011989982
000070 c8 0c 6f bf 06 34 12 bf 38 29 36 be 00 be cb 3d
       -0.9337888 -0.5711063 -0.17789161 0.09948349
000080 0a 0d 03 3f ff 68 6d be 04 31 b4 3e 62 64 4e 3f
       0.5119177 -0.23184584 0.35193646 0.8062192
000090 cc 90 4e bf 4c 08 92 3e a0 9c 53 3f 80 96 a9 3c
       -0.8068969 0.28521955 0.82660866 0.020701647
0000a0 76 57 3b 3f d8 ef df 3e 02 0e 7e bf d4 5c 58 bf
       0.7318033 0.43737674 -0.99240124 -0.84516644
0000b0 8f 6e 2f 3e c8 9f 45 bf ae 1d 06 bf ec 83 29 3f
       0.17132019 -0.7719693 -0.5238904 0.6621692
0000c0 74 98 ad 3e 34 fb 93 be 98 6c 83 be 20 e5 83 bd
       0.33905375 -0.2890259 -0.25668788 -0.064401865
0000d0 c0 f2 1c be 38 a5 16 3f 48 f8 5d be 9d 5b 74 bd
       -0.15326977 0.58845854 -0.21676743 -0.05965768
0000e0 40 ae 6c bd 70 d8 40 bf 68 e7 17 3f 54 61 4b bf
       -0.057783365 -0.7533026 0.5933747 -0.79445386
0000f0 90 5d e3 3e ee a2 08 3f a4 16 a4 be f6 b9 17 bf
       0.4440732 0.5337361 -0.32048523 -0.5926813
000100 8e 35 53 3f a6 d3 5e 3f 00 2d 82 3e 96 35 17 bf
       0.8250359 0.870417 0.25424957 -0.5906614
000110 3e 59 62 3d 54 f5 01 bf c2 a4 24 3f 80 cf 77 3d
       0.05526089 -0.50764966 0.643139 0.06050062
000120 a4 d9 bb be a0 a3 4f 3f 50 4c de be 21 b3 6f 3e
       -0.36689484 0.81109047 -0.43417597 0.23408176
000130 0e 75 20 bf 1f a0 da 3d e2 30 04 3f f8 78 37 bd
       -0.6267861 0.10675072 0.5163709 -0.0447931
000140 f8 a6 1d bf c2 08 1c bf 3a 8c 40 3f ee 5f 4b bf
       -0.615829 -0.60950863 0.7521397 -0.7944325
000150 20 3d ff be 09 a5 7f 3e 6c 4b ff be 40 21 ce be
       -0.49851322 0.249653 -0.4986223 -0.40259743
000160 1e ff 2d bf 22 8c 49 3d f2 1b 24 bf a3 5d 6a bd
       -0.679674 0.049205907 -0.6410514 -0.057218205
000170 56 7a 4e 3f 49 10 54 be 60 49 8e 3e 7c 6f 44 3f
       0.8065542 -0.20709337 0.27790356 0.7673261
000180 5c 9c c7 be 24 eb 94 be 94 1f ac 3e a0 47 bb 3e
       -0.3898648 -0.29085648 0.33617842 0.36578083
000190 92 cb 7e 3f 5f 52 3e 3e ac 79 f1 be d7 3c d5 be
       0.99529374 0.1858611 -0.4716314 -0.4164798
0001a0 8e b5 3e bf 32 a4 2d 3f 3e 32 3c bf 70 e9 dd be
       -0.7449578 0.6782867 -0.73514163 -0.4334216
0001b0 e8 c5 4e bf 62 c8 5c bf ca 84 09 3f 68 d6 74 3f
       -0.8077073 -0.8624326 0.53718245 0.9563966
0001c0 c6 5c 06 bf 08 5c dc be 1c 46 41 3f ac 1f a3 be
       -0.5248531 -0.43038964 0.75497603 -0.318601
0001d0 80 5c 98 3c 1f c2 a5 bd d8 21 34 bf 28 af 3d 3f
       0.018598795 -0.08093666 -0.7036414 0.7409539
0001e0 a8 bc 26 3f 0a 03 4b 3f 24 ac d1 3e d4 75 70 bf
       0.65131617 0.7930151 0.40951645 -0.9392979
0001f0 71 e9 6f 3e 50 3a 35 bf 60 a1 45 3d 23 72 92 bd
       0.23428895 -0.707921 0.048249602 -0.07150676

convs.0.nn.0.bias f4 [128]
000000 e4 74 1e 3f ea 56 7d bf 60 be 1b bf 0e 34 4b bf
       0.6189711 -0.98960745 -0.60837364 -0.79376304
000010 14 a5 da 3e 1c fb a9 be fd cc 5c 3d 62 50 6b bf
       0.4270407 -0.33199394 0.05390643 -0.9191953
000020 60 0b 67 bd f1 7e 44 be 20 b3 be be 48 93 d7 3e
       -0.056407332 -0.1918905 -0.37246037 0.42104554
000030 14 05 3a 3f 40 2d 63 bd 74 97 e6 be 24 29 2b 3f
       0.72664 -0.055463076 -0.45037425 0.6685965
000040 2a e9 3f bf 4c 5f 49 3a 97 cb e4 3c fe e9 51 bf
       -0.74965155 0.0007681742 0.02792911 -0.8199767
000050 35 bd 2f 3f a6 ee 08 bf 5d c1 05 3d 13 53 cd bb
       0.6864808 -0.5348915 0.03265511 -0.0062660067
000060 2c fa 2c 3f 2f 01 9f bd 10 4b 6e 3f e0 83 18 3f
       0.6756923 -0.07763898 0.93083286 0.59576225
000070 3e 4d 10 bf f4 14 00 bf 7c 4f 97 be 58 ef 3b bf
       -0.5636786 -0.5003197 -0.2955283 -0.73412085
000080 c1 e6 93 3d f2 f3 75 3e aa 33 42 bf ec b5 b1 3e
       0.07221747 0.24018839 -0.75860083 0.34709108
000090 85 5b c2 3c 5c 4d 31 bd b0 a8 24 bf 80 95 14 be
       0.02372528 -0.043286666 -0.64319897 -0.14510155
0000a0 1a 4d 60 bf aa 15 3e 3f f8 6d 8c be a6 cd 23 3f
       -0.8761765 0.74251807 -0.2742765 0.6398567
0000b0 6c 3c 8b be 34 89 a4 be 94 4d c2 be 96 d9 07 3f
       -0.27194536 -0.32135928 -0.37949812 0.53066385
0000c0 8c 14 1e bf 70 6e 01 be 46 2c a5 3c 7d c5 77 3d
       -0.617501 -0.12639785 0.020162713 0.060491074
0000d0 f8 ed 98 be f0 16 58 3f c0 ce 18 bd c8 82 3e 3f
       -0.29869056 0.8441 -0.037306547 0.74418306
0000e0 24 3d d7 be d9 63 84 3e 68 23 d6 3e bc ff cc be
       -0.42038834 0.25857428 0.41823888 -0.4003886
0000f0 ec 69 ce 3e 2a f7 0c 3f e8 72 10 3f 50 5e 67 3f
       0.40315187 0.5506464 0.56425333 0.90378284
000100 a8 da 99 3e 61 b0 35 3e 50 a5 8e 3e 91 4a 49 3e
       0.30049634 0.17743064 0.27860498 0.19657351
000110 0f f1 e8 3d 5e 47 5f 3f 1e 1b 48 3f 84 d1 82 be
       0.11374103 0.8721827 0.7816638 -0.25550473
000120 00 74 20 bc f0 eb 95 3e c8 39 c1 3e 3c 6a 5e 3f
       -0.009793282 0.2928157 0.37739396 0.8688085
000130 02 bf 64 3f 99 e2 3a be 04 88 20 bf ec cd 54 3f
       0.89353955 -0.18250503 -0.62707543 0.8312671
000140 08 58 75 bf b0 b3 1a 3f e6 b5 3b 3f 38 3c 43 3f
       -0.9583745 0.6043043 0.7332443 0.7626376
000150 d0 4e 66 be ac eb 9c 3e 00 f8 f1 bd 36 11 16 bf
       -0.22491002 0.30648553 -0.1181488 -0.5862001
000160 dd 59 fb 3d 48 7c 72 3f 08 10 ac 3e a6 94 52 3e
       0.122729994 0.9472089 0.3360598 0.20564517
000170 9f 57 1e be f4 26 b9 3e 80 73 89 3e 70 7a 92 be
       -0.15463112 0.3616253 0.26845932 -0.28609037
000180 58 49 77 be 3c e9 af 3e 58 57 81 be 92 53 64 3f
       -0.24149072 0.3435763 -0.2526195 0.8919002
000190 47 ef 2a be d2 e8 15 3f ee 12 22 3f ab 34 47 3f
       -0.1669284 0.5855838 0.63310134 0.7781474
0001a0 28 e5 71 be 6c 48 d5 be a2 2c 42 3f cc 62 6a 3f
       -0.23622572 -0.41656816 0.75849354 0.91557
0001b0 5c 6a 29 3d 50 f1 38 3f 7c 6c 5b bf 14 86 62 bf
       0.041361198 0.72243214 -0.8571241 -0.88485837
0001c0 c7 2a 35 3e e8 12 32 3f 50 db db 3e 40 b7 de bc
       0.176921 0.695601 0.4294076 -0.02718699
0001d0 46 15 3e bf 78 a4 a6 3e 6e 4f 34 3f 1c 95 4a 3f
       -0.7425121 0.32547355 0.704337 0.7913377
0001e0 32 81 66 bf 39 c5 0a bd c4 6c 2c bf 02 5e 7c 3f
       -0.90040886 -0.033879492 -0.67353463 0.98580945
0001f0 87 66 73 be 50 f0 43 3f 80 84 42 bf 07 46 14 3e
       -0.2376958 0.7653856 -0.7598343 0.14479838

convs.0.nn.2.weight f4 [128, 128]
000000 36 71 de 3c 4d bb 23 3c ea 6b 89 bd 4c d7 36 bd
       0.027153593 0.009993386 -0.06710036 -0.044638917
000010 91 02 b0 bd c0 28 85 3d d6 c3 a8 3d b8 70 94 bc
       -0.085942395 0.06501913 0.08240478 -0.018120155
000020 2d c1 83 bd e5 88 29 3d 69 91 7a bc 4a 21 32 bd
       -0.0643333 0.04139032 -0.015293458 -0.04348878
000030 20 87 14 3c 4d 41 8e bc a5 c1 05 ba 8a bc af bd
       0.009065419 -0.017365122 -0.00051024026 -0.08580883
000040 e6 ec 4b bc 59 f9 90 bd 08 b1 f9 bc 22 84 dc bb
       -0.012446618 -0.07078809 -0.030479923 -0.0067296186
000050 2e 46 ba 3c 87 bf 72 bd aa 19 92 3c 8f 77 b5 3c
       0.022738542 -0.059264686 0.017834503 0.022151737
000060 2e 1b b0 bc 8c 8a e0 3c f1 35 68 3d 68 59 72 3d
       -0.021497335 0.027409814 0.056692068 0.059167296
000070 b0 32 a7 bd ce 33 ff bb 74 ac 81 3d 38 e8 94 bd
       -0.08163965 -0.007788158 0.06331721 -0.07270855
000080 56 77 55 3d ea e4 36 3d 7c 35 79 3b a7 c2 ab bd
       0.05211576 0.044651903 0.0038026264 -0.08386736
000090 10 0e 92 3d 7b e6 c2 3b 87 5b 98 3b ba 9d 1c 3d
       0.071315885 0.0059478856 0.004649583 0.038236357
0000a0 18 48 9f 3d 89 33 cf bc b9 4e 69 bd 17 c9 92 3d
       0.07777423 -0.025293129 -0.05695984 0.07167261
0000b0 c4 22 5a 3d 55 94 88 3d 78 49 4d bd 29 f8 1d 3d
       0.05325581 0.06668917 -0.050118893 0.038566742
0000c0 be e7 02 bc 76 79 58 3d 00 7b 6b 3d ef 84 b3 3d
       -0.007989822 0.05285021 0.05749035 0.087655894
0000d0 4e 67 a4 bd 4c df 33 bd e7 61 11 bc e5 10 3e bd
       -0.08027516 -0.043914124 -0.008873439 -0.04640283
0000e0 1a ff 22 3d 92 15 93 3d c6 b8 17 bc 25 c4 35 3d
       0.039794065 0.071818486 -0.009260362 0.04437651
0000f0 e5 7a 8e 3a 31 a8 42 bb bc fa 3b bd f9 21 ab 3d
       0.0010870366 -0.00297023 -0.045893416 0.08356089
000100 d1 f4 a4 bd 11 9f 84 3d 10 94 b4 bd 9f 50 a0 bd
       -0.080545075 0.06475652 -0.08817303 -0.07827877
000110 76 a7 b7 3b 04 e7 c5 3c 0e 06 55 3d 24 f6 e3 bc
       0.0056046797 0.024158008 0.052007727 -0.02782733
000120 21 0f 88 bc c2 04 1e bd d0 06 a7 bd 11 5d d2 3c
       -0.016608777 -0.038578756 -0.08155596 0.025679143
000130 94 c3 76 bd e2 48 9c 3d 4b bb 93 3d 28 4d 55 bd
       -0.06024511 0.07631089 0.07213458 -0.052075535
000140 ca dd 39 bd 6c 71 36 3c a9 00 04 3d 9d 69 2d 3d
       -0.04537753 0.01113544 0.032227192 0.04233705
000150 be 60 37 bd 1e 8d 3f bd d1 f5 42 3d 0e f0 41 bd
       -0.044769995 -0.04676544 0.04759771 -0.047348075
000160 71 ca 03 3d 9d ce 0e bd ca 0b 68 bd 7d 02 f6 bb
       0.032175485 -0.03486501 -0.056651868 -0.007507621
000170 d8 75 32 bd 1c a8 bf 3c e3 60 08 3d ac 7e 4b 3d
       -0.043569416 0.02339559 0.033295523 0.04968135
000180 78 75 a1 bd 5d 06 5d 3d 65 b4 40 3d de fb a9 bc
       -0.078837335 0.053961147 0.047047038 -0.020749982
000190 88 cf 3f 3b 61 b6 d3 3b c9 87 86 bd ac 59 5a bd
       0.0029267985 0.0064609502 -0.06568868 -0.053308174
0001a0 67 d0 92 3b dd 5b cc bb 2c cd 47 bd e1 12 47 3a
       0.00448041 -0.006236537 -0.04877965 0.0007594061
0001b0 cf e3 35 bc d1 e9 6a bd 17 8e cb bb cb db 68 bd
       -0.011101677 -0.05735189 -0.006212007 -0.056850236
0001c0 a3 94 96 bc e6 79 4f 3d 15 4f f8 bb 9c d1 57 3c
       -0.018381422 0.05065336 -0.0075777867 0.013172533
0001d0 9c e0 17 bd c2 b4 5a 3d 6d c5 21 bc c7 b7 e6 bc
       -0.03707944 0.05339504 -0.00987373 -0.028163804
0001e0 83 5c 30 3d c7 b1 44 bd 30 f6 52 bd 47 86 db bc
       0.043056976 -0.048021104 -0.051504314 -0.026797427
0001f0 46 5b 4e bd b1 5e 6d 3d c7 2b 41 3c 76 05 8d 3c
       -0.050380014 0.057951633 0.0117902225 0.017214518
000200 a6 74 97 3d 4d 2f bf bc 96 f3 d9 bc c5 a4 e5 3c
       0.07395296 -0.023337984 -0.026605409 0.02803267
000210 d2 b5 92 3d 0c e3 1c 3d 61 55 5f 3d b7 94 25 bd
       0.07163586 0.038302466 0.054524783 -0.04042503
000220 11 4e 2d 3d 4c da 0d 3d da 44 25 bc d0 b7 5e 3d
       0.042310778 0.034632012 -0.010087216 0.054374516
000230 23 c1 c9 bc 71 86 fc 3b be d0 3b 3d d4 cb 91 3c
       -0.024628228 0.0077064564 0.04585337 0.017797388
000240 6f 1f a6 3b 37 dc 20 bd d9 08 77 bd 95 d3 3d bd
       0.005069665 -0.039272513 -0.060311172 -0.04634436
000250 8f e3 bd bc 4d 20 4b 3d b4 f1 83 3d 90 32 57 bd
       -0.023179797 0.04959135 0.064425856 -0.052538455
000260 2f 2a 45 bd 25 f1 6e 3d f2 da 93 bd 4f 42 0f 3b
       -0.048135933 0.058335442 -0.07219495 0.0021859591
000270 3e 6f de bc 68 be cf bc 71 34 34 bc 8c 72 77 bd
       -0.027152654 -0.025359347 -0.010998831 -0.060411975
000280 b6 a1 a2 3d 52 95 79 bd a2 c4 9e 3d 9b ee 18 3d
       0.07941 -0.06093342 0.077523485 0.037336927
000290 f1 d2 0f bc 3d a1 ae 3d d4 45 31 3d 88 3e 01 3d
       -0.00877832 0.085268475 0.043279484 0.031553775
0002a0 d1 dd 57 bd ae 1e f4 3c e3 b1 36 3d a6 a7 44 3d
       -0.052701775 0.029799785 0.04460324 0.048011445
0002b0 59 d0 64 bc b4 92 b4 bd 17 77 66 bd d1 90 4f bd
       -0.01396569 -0.08817044 -0.056265917 -0.050675217
0002c0 27 56 9d 3d 4a e6 9f bd 7a 7b 71 3d 1f 1c dc ba
       0.07682448 -0.07807596 0.058955647 -0.0016793049
0002d0 fe 30 86 bc 4f a3 23 bd ef e7 2a bd 89 35 9a 3d
       -0.016380783 -0.039950665 -0.041725095 0.07529742
0002e0 58 a5 99 bb 3a e5 78 bd 4f d7 ae 3d 6e a7 7a 3d
       -0.0046889 -0.060765482 0.085371606 0.06119483
0002f0 80 0f a7 bd 83 8f 6d bd 2a b7 10 3d 80 0a b0 bd
       -0.08157253 -0.05799819 0.03533093 -0.08595753
000300 ea 97 a2 3c 30 f5 af bd 31 ed 8b bd c4 2e 76 bb
       0.019847829 -0.08591688 -0.0683235 -0.0037564496
000310 c5 f8 80 bc 72 5c 20 bd 1a 0d 96 3d 0f 84 66 3d
       -0.015743623 -0.039150663 0.07326718 0.056278285
000320 03 79 83 bd 5f 92 ae bd 2f 6b fd bc b0 32 70 3c
       -0.064195655 -0.08524012 -0.030934898 0.014660522
000330 0d 3c 83 3b b5 57 74 bd 79 7b 8e bd 7c c1 86 3d
       0.0040049613 -0.059653956 -0.06957144 0.06579873
000340 1b c0 1d bc a2 e4 b0 bd 62 f9 11 3d 85 0b 48 3d
       -0.009628321 -0.08637358 0.03563822 0.04883911
000350 0f f2 2d bd af b0 20 bd 9a 55 48 3d 7c ea ab 3d
       -0.042467173 -0.039231 0.04890976 0.08394334
000360 2c 67 5b 3c 95 8c 9c bd 01 5d c8 3c 34 5d 70 bd
       0.013391297 -0.076440014 0.02445841 -0.058682635
000370 45 47 4b 3d b5 78 ac 3d 3f 4d aa bd 4c 96 97 bd
       0.049628515 0.084214605 -0.08315515 -0.07401714
000380 c2 ba b2 3b b2 c1 ab 3d d7 ad b8 3c cb 8e 0a bd
       0.005454392 0.08386554 0.02254383 -0.033827584
000390 0d 01 f4 bc 20 21 1d bd 24 7d 9c 3d 00 d7 62 3d
       -0.029785657 -0.03836167 0.07641056 0.05538082
0003a0 fb 70 d7 3c d6 a4 af 3d ba 9c ad 3d 83 96 99 bd
       0.02629899 0.08576362 0.08477159 -0.07499411
0003b0 6b bc 82 3d 0a df 08 3c 07 e9 b9 bc d9 28 3f bd
       0.06383594 0.008353958 -0.022694124 -0.046669815
0003c0 70 50 fc 3c 0b 72 e7 3b b4 6f 9f 3d 37 0f 8d bd
       0.030800074 0.0070631555 0.077849776 -0.068876676
0003d0 64 4c ab 3d b8 fc ce 3c b4 ab 8c 3b cf 2f 8b 3d
       0.0836418 0.02526699 0.0042929295 0.06796228
0003e0 fc 1f 44 bd 22 d4 cc bc 76 23 87 3d 85 84 de bc
       -0.047882065 -0.025003497 0.065985605 -0.0271628
0003f0 dd 95 99 3d fa 1f 17 3d 3f b9 68 bd 39 e7 92 bd
       0.07499287 0.03689573 -0.05681729 -0.071730085

convs.0.nn.2.bias f4 [128]
000000 54 73 7e 3d 0e 97 b2 bd bc c5 8b bc 4d a0 5c 3d
       0.062121704 -0.08720218 -0.01706206 0.053863812
000010 f8 a5 a1 3b c7 87 22 3c e1 72 1d bc d6 ab 1d bd
       0.004933115 0.009920067 -0.009609909 -0.038493954
000020 5d 2d 1d bd c6 f8 9e bd 17 e3 99 bb d8 de 1b bd
       -0.03837334 -0.077622935 -0.0046962607 -0.038054317
000030 93 f1 4a 3d 3d ff a7 3c ad 03 90 3d 1b 69 4f bd
       0.04954679 0.02050745 0.07031951 -0.050637346
000040 55 01 99 bd 1c aa ae bc 24 4a 7f bd 36 bd 64 3b
       -0.07470957 -0.021321349 -0.062326565 0.0034902818
000050 a4 7c a6 bd df 0c 19 3d a6 97 a3 3d 15 79 51 bd
       -0.08129242 0.03736579 0.07987909 -0.051140863
000060 e2 49 27 bd 9b da 25 bc 0f 6b 26 3d 71 fc 96 bd
       -0.040841945 -0.01012292 0.040629443 -0.07372368
000070 72 2c 33 3d 45 97 5a bc 2a 00 48 3c 24 d6 96 bd
       0.04374356 -0.0133417295 0.01220707 -0.07365063
000080 54 d8 b7 bc 58 45 87 3c 2b 83 4e 3c 46 1e 7d bd
       -0.02244202 0.016512558 0.012604515 -0.06179645
000090 a7 f3 28 bd 5f 87 42 3d 0f 95 d9 3b 8c a1 b1 3d
       -0.04124799 0.04749238 0.0066400836 0.08673391
0000a0 b4 88 61 3c fd 47 88 3d 3d 00 8e bd 7b a9 6d 3d
       0.013765503 0.06654356 -0.06933639 0.058022957
0000b0 b5 82 c6 bc 3b ac 41 bd e1 28 03 3b ce c1 08 bc
       -0.024232248 -0.047283392 0.002001338 -0.008346988
0000c0 7d b5 6c bd af 0a b3 bd bf 34 14 bd eb 5a 94 bd
       -0.05779027 -0.08742272 -0.036183115 -0.07243904
0000d0 4c 94 a5 3d 5f 03 0a bd 6f 6d 3e bd 3d 6c 9c 3d
       0.08084926 -0.03369462 -0.046491083 0.07637832
0000e0 64 e1 86 3b 56 19 93 3d 3c 2e a0 3d 0f 54 24 bc
       0.004116224 0.07182567 0.078213185 -0.010029807
0000f0 f2 40 3e bd 6c 2d 1c 3d 67 2c a6 bd 60 86 d4 bc
       -0.046448655 0.038129255 -0.08113938 -0.025942981
000100 bf 94 5c 3d a0 c6 10 3d c4 81 b3 3d f7 46 e3 bc
       0.053852793 0.035345674 0.08764985 -0.0277438
000110 66 34 cf bc 3c 39 49 bd e0 35 4f bd 14 5d 41 bc
       -0.02529354 -0.04912685 -0.05058849 -0.011801977
000120 a4 46 b3 bc 62 9c 44 bd 63 63 0d bd 2c 12 17 bc
       -0.02188427 -0.0480007 -0.03451861 -0.009220641
000130 b4 a8 53 3d 24 d3 2c 3d d3 32 37 3d 60 b3 98 bd
       0.05167456 0.042193547 0.044726204 -0.07456088
000140 5b ad 94 3d 6e eb 2a bd d4 5e 38 3d da c4 80 bd
       0.072596274 -0.04172843 0.04501231 -0.062875465
000150 4a 23 94 bd a6 69 40 bd 0f 33 90 bd d8 26 5c 3d
       -0.07233293 -0.046975754 -0.07040989 0.05374798
000160 cb aa 8d 3d 6d 91 67 3d 61 fc 6a 3c 92 1c 89 3c
       0.06917342 0.056535173 0.014342398 0.016737256
000170 73 08 87 bd fb d6 b0 bd 47 bb a3 bd 56 2f 91 3d
       -0.065934084 -0.08634754 -0.07994705 0.07089107
000180 9b 50 24 bd f2 1e 5c 3d 54 83 ad 3d 16 ed 61 bd
       -0.040115934 0.05374045 0.084723145 -0.055157743
000190 4c 92 34 bd 4b f3 db bc 1a 8c 95 bd 00 3d a1 3c
       -0.044084832 -0.02684941 -0.07302113 0.019682407
0001a0 46 aa 8d 3b b8 56 0d bc 4f 79 50 3b 0a 79 e9 3b
       0.0043232767 -0.008626632 0.0031810587 0.0071250247
0001b0 76 55 11 3d 69 84 a5 3d 6c 00 14 3d e2 54 b2 ba
       0.035481893 0.08081896 0.036133215 -0.0013605619
0001c0 61 75 d5 bb 98 56 5e 3d 54 b8 35 bd a7 07 72 3d
       -0.006514237 0.0542818 -0.044365242 0.05908933
0001d0 31 09 ab 3c 4c 60 92 bd 55 f4 cb 3c 9a 34 00 bc
       0.020878406 -0.071472734 0.02489678 -0.007825041
0001e0 bd f0 60 3d 1e 15 09 3d 9f 7c a8 bc ce 28 97 bc
       0.054917086 0.033467405 -0.020567236 -0.018452074
0001f0 2e 0b 8e bd 94 b1 e8 bc cd 8d dc bb 7c 8f 1a 3c
       -0.06935726 -0.028404988 -0.006730771 0.009433623

convs.1.nn.0.weight f4 [128, 128]
000000 6b a2 4d bc de b3 12 3d e1 c2 a5 3d 5e 84 45 bd
       -0.0125509305 0.035816066 0.08093811 -0.04822194
000010 56 65 8b bc 5d 3c 34 3d 66 0d 4f bd c0 40 a7 3d
       -0.017016094 0.04400288 -0.050549887 0.08166647
000020 63 fa 73 3d c9 6b 42 bd 6f b4 31 bd 13 a6 9b bd
       0.05956496 -0.047466073 -0.043384966 -0.076000355
000030 54 83 92 bc 3a 01 c8 3c 02 e1 af 3d d8 e8 01 bd
       -0.017884888 0.024414647 0.08587839 -0.031716198
000040 b3 44 9c bd 9c e4 0a bd 89 c2 56 3d cb 89 e0 bc
       -0.07630291 -0.033909425 0.052431617 -0.027409455
000050 46 a5 98 3d 06 4d 45 bd 72 c6 04 3d 01 71 b2 3d
       0.074533984 -0.04816916 0.032415815 0.0871296
000060 72 6a 41 3b 5b d2 a8 3d 93 57 ab bd 2f 79 c9 bc
       0.002951291 0.08243247 -0.08366313 -0.024593918
000070 6a 71 98 bd cf fd fc 3c 57 cb 26 3d 9d 85 2e 3d
       -0.07443507 0.030882744 0.040721264 0.042607892
000080 31 08 19 bb 5f ab a7 3d d4 55 c5 3c 4c 77 01 bd
       -0.002335083 0.08186983 0.024088778 -0.03160791
000090 dc fa 81 3d d9 96 19 bb 4c ac 77 bd a4 8d 2d ba
       0.06346676 -0.002343586 -0.06046705 -0.00066205324
0000a0 de a9 81 bc 17 9b af bd de c7 31 bb 03 b4 55 bc
       -0.01582807 -0.08574503 -0.0027127187 -0.013043406
0000b0 13 64 16 bd f5 45 a0 3b 82 a5 b4 bd 33 66 31 bc
       -0.036716532 0.004891152 -0.088206306 -0.010827589
0000c0 0c e9 a6 bd bb 87 a6 bb 9c d0 43 3c 96 ce 2a 3d
       -0.08149919 -0.0050820983 0.011951592 0.041700922
0000d0 22 17 c6 3c d6 e2 ab bc e6 23 b0 bd 49 f9 aa bd
       0.024180952 -0.020982187 -0.08600597 -0.083483286
0000e0 39 41 1b 3d 67 a3 c7 bc 33 02 72 3d 30 ce 31 bc
       0.037903998 -0.024369908 0.05908413 -0.010852382
0000f0 08 be 81 3d 79 84 9f 3d e4 35 ba bc 30 8e 8f 3d
       0.06335074 0.07788939 -0.022730775 0.07009542
000100 4d 32 25 bd 23 db 1e bd 05 bf 4a 3d 25 dc 93 3d
       -0.040331174 -0.038783204 0.049498577 0.072197236
000110 3d c6 38 3d c9 83 98 bc 16 3b 88 bd 01 c2 e9 3b
       0.04511093 -0.018617528 -0.06651895 0.007133723
000120 1c 07 51 bd b3 81 a0 bd 7e 98 f0 bc 98 ec 50 3d
       -0.05103217 -0.07837238 -0.029369589 0.051006883
000130 4f 00 33 bd 30 fb b2 bd e3 75 46 bc 89 9b 58 3d
       -0.043701466 -0.087393165 -0.012113067 0.052882705
000140 63 09 2b 3d 2f 26 59 3d 27 27 9b bd 7d 5a 3f 3d
       0.041757 0.05301493 -0.07575827 0.046717156
000150 ed e2 0f 3d e2 1b e0 bc 13 c3 74 3c 61 74 90 bd
       0.035128523 -0.027357046 0.014939087 -0.070534475
000160 73 d2 62 3d 37 2a 9a bd 9a 0c 4d 3c 4f c8 87 3b
       0.05537648 -0.07527583 0.0125152115 0.0041437517
000170 cd de 97 3d 4b 98 24 bd 00 96 b4 3d d6 2a 2c 3d
       0.07415543 -0.0401843 0.08817673 0.04203304
000180 44 e1 bc bc b2 f6 ac bd 17 8e 01 3c 58 64 02 3d
       -0.023056634 -0.08445491 0.007907412 0.031833977
000190 01 74 9f bd b6 ce 32 bd 59 b7 7f bd 2c 45 d1 bc
       -0.07785798 -0.043654166 -0.062430713 -0.025545679
0001a0 d1 6e f0 3b bb 34 40 bb ad a2 82 3d 51 a0 b0 3c
       0.007337429 -0.0029328305 0.06378684 0.02156082
0001b0 99 48 29 3d 28 1d 07 bd 7e 13 00 3d e7 b0 99 bc
       0.041329 -0.03298679 0.03126859 -0.018761111
0001c0 f3 a9 a0 3d 4d 2c 85 bd 6c f8 ab 3c 26 8c 20 3d
       0.07844915 -0.0650259 0.02099248 0.039196156
0001d0 db e8 59 3d f1 cc aa 3d 0a 18 1a bd 68 bd 80 bd
       0.053200584 0.08339871 -0.03762058 -0.062861264
0001e0 20 77 9a bd 50 e2 a6 bd 51 55 8d 3d b6 df 76 bd
       -0.075422525 -0.081486344 0.069010384 -0.06027194
0001f0 51 53 86 3d ef 4a 97 bd da a1 2a 3d e2 74 6e 3c
       0.0655886 -0.07387339 0.04165826 0.014554234
000200 46 eb 60 3d 1b 95 81 3d 7e e8 ef bc 7d aa 8a 3d
       0.054911874 0.06327268 -0.029285666 0.06770799
000210 08 e0 9b bd 8f 6a 67 bc d8 0a c8 3c e2 5f 3f 3b
       -0.0761109 -0.014124527 0.024419233 0.0029201438
000220 64 98 9f 3c 50 3c 97 bd 11 18 a7 3d 7b e5 49 bd
       0.019481845 -0.073845506 0.08158887 -0.049291115
000230 a8 b5 24 3d 87 93 b2 bd c9 cf fa 3c 5e 46 9c bd
       0.040212303 -0.08719545 0.030616658 -0.07630609
000240 5c 79 22 bd bb f3 86 3d 93 14 0d 3d 27 04 e2 bc
       -0.03966652 0.06589457 0.03444345 -0.02758987
000250 0f d7 02 bd c9 bf 6b 3d 81 4a 0b 3d 3a a6 1c 3d
       -0.031943377 0.057555947 0.0340066 0.038244464
000260 f3 73 02 bd 6d eb 5d 3d 71 61 af 3c 40 ea f5 3c
       -0.03184886 0.054179598 0.021408768 0.030018926
000270 66 70 6a 3d 37 ce 4e bd a5 63 7c 3d 88 aa 4f bd
       0.057236098 -0.05048963 0.061618466 -0.05069974
000280 49 e2 14 3d 9a db 49 3b 03 a8 02 bd ac 49 94 bc
       0.036348615 0.0030801059 -0.03189851 -0.018101536
000290 5b 54 55 bd e9 cf 57 bd b6 95 97 bc 12 d0 b5 3d
       -0.0520824 -0.052688513 -0.018504005 0.08877577
0002a0 2e 8f 90 3d 0d cc 72 3b 89 67 28 bc b2 b0 98 bd
       0.07058559 0.0037047893 -0.010278591 -0.07455577
0002b0 f8 ec 50 3c 4e 78 fb 3c 54 3a 70 bc e3 9a b5 3b
       0.01275181 0.030697014 -0.014662344 0.0055421456
0002c0 12 36 9c bc e1 9a c6 bc 32 57 b3 bd ef 82 40 3d
       -0.019068751 -0.024243774 -0.087568656 0.046999868
0002d0 e5 be a3 bd c0 9e f0 bc 0b a1 82 3d ec 8e b6 3d
       -0.079953946 -0.029372573 0.06378373 0.08913979
0002e0 f6 73 9a 3c a9 63 a7 bc 06 2e 02 bd 6e 4e 59 bd
       0.018854123 -0.020433264 -0.031782173 -0.053053312
0002f0 f4 60 a5 bb 27 11 53 bd 37 a2 5f bd da 6f dd bc
       -0.005046958 -0.05153003 -0.05459806 -0.027030874
000300 a8 3c 94 3d 22 6d 1b bd a6 88 a9 bd 89 5a ae 3c
       0.07238132 -0.037945874 -0.08278017 0.021283405
000310 66 07 ae bd ac ff 61 bd 8e 48 18 3d 40 ca 95 3d
       -0.08497505 -0.05517547 0.03717857 0.07313967
000320 e1 09 83 bd a9 52 0b bc 78 37 ad 3d 94 67 68 bd
       -0.063983686 -0.008503594 0.084578454 -0.056739405
000330 cb 3f 0d 3d 2a 32 69 3d 5b c4 37 3d 36 3f 88 3b
       0.034484666 0.056932606 0.044864994 0.004157926
000340 04 ff 0c bd 53 84 2e bc 5c 04 47 3d 09 a6 ab 3d
       -0.03442289 -0.010651666 0.04858814 0.08381278
000350 92 f2 12 bd 04 b7 c7 bc f4 df a8 3d a5 7d 49 3d
       -0.035875864 -0.02437926 0.08245841 0.04919209
000360 00 17 0e 3d 33 e2 ca bb d8 57 60 bd f6 4f 45 3d
       0.034689903 -0.006191516 -0.054771274 0.04817196
000370 89 ea 0f bc 29 90 87 bd 52 35 92 bd a3 c0 a5 3d
       -0.008783945 -0.06619293 -0.07139076 0.08093383
000380 1f b3 a9 3b 8c a4 8a bc 05 75 91 3c 80 ef 47 bc
       0.0051788236 -0.016924165 0.017755995 -0.012203097
000390 49 36 20 bd a5 35 99 bd bc a4 83 bc a1 76 a2 bd
       -0.03911427 -0.07480935 -0.016069762 -0.07932783
0003a0 53 de 7e 3c 3a f6 aa 3c 98 23 f4 bc cc 72 78 3c
       0.015555936 0.020869363 -0.029802129 0.015164088
0003b0 5a e4 97 bd c1 a1 9f bd 09 ac 98 bc cf 8a f2 bc
       -0.074166015 -0.07794524 -0.01863672 -0.029607205
0003c0 6a 11 63 3a 44 c2 04 bd fa 6a 96 3d bb 88 b9 3c
       0.00086619577 -0.03241183 0.07344623 0.022648206
0003d0 5d 94 ab bc bf fb ae 3d e3 73 b6 3d 46 86 28 bd
       -0.020944769 0.085441105 0.089088224 -0.041143678
0003e0 7f 50 ee 3c 5e b8 3c bd 0c d1 a5 bd 07 8a e6 bc
       0.029091118 -0.046074264 -0.08096513 -0.028141988
0003f0 cc df dc bc 94 66 ea bc 67 c3 7b 3d 02 25 9b bd
       -0.026962183 -0.028613366 0.061465647 -0.07575418

convs.1.nn.0.bias f4 [128]
000000 f1 32 6c 3d 43 0b 14 bd 47 63 fd 3c 72 22 8c 3d
       0.05766577 -0.036143553 0.030931128 0.068425074
000010 68 3d 98 3d 25 2b b1 bd 2a 44 85 bd df 11 71 bc
       0.07433587 -0.08650807 -0.06507142 -0.014713733
000020 a1 6a 55 3d 3d 1f a2 bd 4c 61 58 bd a9 c3 3a bc
       0.052103642 -0.079161145 -0.052827165 -0.011399188
000030 b0 64 ac bc a2 0c 38 3d 89 66 ac bd 5c 6f 7f 3d
       -0.021044105 0.044933923 -0.084179945 0.06236206
000040 5c 87 aa bc aa 07 a0 3c 7c 69 a7 3d c6 c2 55 3d
       -0.020816498 0.019534905 0.081744164 0.052187704
000050 45 42 63 bb df 81 53 3d c0 31 7c 3d c9 2e 41 bd
       -0.003467695 0.051637527 0.061570883 -0.04716376
000060 4f 67 ad 3c 78 71 96 3c 83 64 a8 bd a2 79 5d 3c
       0.021167425 0.018364653 -0.08222296 0.013517769
000070 af 63 59 bd b4 7d 6f 3d 88 54 55 bd 92 71 8a bd
       -0.05307358 0.05846949 -0.05208257 -0.06759943
000080 52 55 40 bd 31 34 35 bc 0d 80 86 3d b5 35 55 bd
       -0.046956368 -0.011059807 0.065673925 -0.052053172
000090 34 8b 4d bd 40 73 ae 3c b3 d9 a2 3d b5 3f 47 3d
       -0.050181583 0.02129519 0.07951679 0.04864474
0000a0 12 52 9b 3d 74 f6 b6 bc db ed a2 3d de 32 84 3b
       0.07584013 -0.022334315 0.079555236 0.004034384
0000b0 ef b4 4c 3d 03 d3 a5 bd dc 12 ec bc 1f c7 7b bd
       0.04997724 -0.08096888 -0.028817587 -0.061469194
0000c0 56 9f 98 bd eb 93 9a bd ae ac 19 3b e6 01 a3 bc
       -0.07452266 -0.07547744 0.0023448872 -0.019898366
0000d0 8f 17 2f 3d cc bc 80 3d 99 da 89 3d 98 d0 21 3d
       0.042747077 0.0628601 0.06731147 0.03950557
0000e0 3b dd 4a 3d ed 7f b6 3d 87 b6 ba 3c 46 37 90 bd
       0.049527388 0.08911119 0.022792114 -0.070417926
0000f0 2a cf 69 3d 9b 75 22 bd a6 47 84 bd 9d e5 d6 bb
       0.057082333 -0.03966294 -0.06458978 -0.0065581338
000100 f0 53 9d 3d d2 56 25 bd ad f9 18 bd 9f dd c4 3c
       0.076820254 -0.040366 -0.037347484 0.024031458
000110 fa 98 45 bd 4f 68 ce 3c ca dd 2c 3c 3f e9 2d 3d
       -0.048241593 0.025196223 0.0105509255 0.04245877
000120 36 ca 4a bd e9 72 7a 3d 24 86 6c 3d 7e 4f 77 3c
       -0.04950925 0.061144743 0.057745114 0.015094636
000130 e9 27 a5 bc 4d a6 1b bd 03 ac 51 bd 6c e5 3f 3c
       -0.020160632 -0.038000394 -0.051189434 0.011712413
000140 d6 fd 86 3d 09 76 1a 3d c5 df 44 bd 16 35 b2 3d
       0.06591384 0.037710223 -0.048064966 0.087015316
000150 ec de b2 bd 02 23 0c bd b1 81 f6 3c 89 6a 60 3d
       -0.08733925 -0.034213074 0.030091139 0.0547891
000160 e3 6c 8a bc 68 b1 80 3d cb f7 2e 3c c9 7e 9a bd
       -0.016897624 0.062838376 0.010679196 -0.075437136
000170 e9 9e 0d bc 05 02 84 bd 78 f2 5f bd aa 44 b1 3d
       -0.008643844 -0.06445698 -0.054674596 0.08655675
000180 f4 7a a8 3d ec bc 65 bd 39 42 32 3a db 18 47 3d
       0.082265764 -0.056088373 0.0006800029 0.04860769
000190 30 3d 8b bd c4 6e 93 3d b9 39 e0 3c 1a 84 f4 bc
       -0.0679878 0.07198861 0.027371274 -0.029848147
0001a0 f8 d9 9b 3b 3d fd 93 bb fc 9e d3 bc 76 62 82 3d
       0.0047562085 -0.0045162723 -0.025832646 0.06366436
0001b0 b0 59 83 3d b0 2b 35 3c 5e 20 1e bd 46 ae 64 bd
       0.06413591 0.011057779 -0.038605087 -0.055830263
0001c0 5f 73 94 bd 3b 84 7c bb 17 87 51 3b 30 9b 93 bc
       -0.07248568 -0.0038530964 0.003197139 -0.018018335
0001d0 0b 59 aa bc 7f a6 1b 3c cb 10 26 bd 50 f8 23 bd
       -0.020794412 0.009500145 -0.04054336 -0.04003173
0001e0 44 d5 48 bd 53 71 cc 3c 42 7b 26 3a 89 9c 07 bd
       -0.04903151 0.024956381 0.00063507643 -0.033108268
0001f0 da d8 41 bd 02 03 80 bd 74 54 8b 3d 09 78 12 3c
       -0.047325946 -0.06250574 0.068032175 0.008939751

convs.1.nn.3.weight f4 [128, 128]
000000 68 da 9d bd 35 d8 73 3d b8 31 0b 3d fa d0 8c 3d
       -0.07707673 0.059532363 0.033982962 0.068757966
000010 66 7e 4b bd 99 80 a8 bd 1c 66 5f bd af e3 15 bb
       -0.04968109 -0.08227653 -0.05454074 -0.0022871306
000020 55 80 4a 3d 1d 34 ee bc b6 0b 9a bd 80 12 6e 3d
       0.049438793 -0.029077584 -0.07521765 0.05812311
000030 73 3d 85 3c 7c e6 4a bd 8e 26 48 3d 74 3e 8e bd
       0.016264653 -0.049536213 0.048864894 -0.06945506
000040 af 7d 10 3c c3 a9 ef 3c 0b 60 87 3c c0 a1 05 3d
       0.008819028 0.029255753 0.016525289 0.03262496
000050 ff fa 3e bc 01 ad 53 3d 35 71 b6 3d dc 21 9d bd
       -0.011656522 0.05167866 0.08908311 -0.07672474
000060 02 ae a6 bd 6b 69 86 bd 6e 6c 55 bc 7d 97 a5 bd
       -0.08138658 -0.06563076 -0.01302634 -0.08085535
000070 62 a8 7b 3c f2 ad d7 bc b7 d6 65 bd e2 9c 3f bc
       0.01535997 -0.02632806 -0.05611297 -0.011695119
000080 a8 24 24 bd fb 5f 52 3d a6 0c 99 bd 2e 3b 5c bd
       -0.04007402 0.051361065 -0.074731156 -0.053767376
000090 bd 8f a8 3d 8a 4b 35 3d 0e 4c 7b 3c 56 97 b6 3d
       0.08230541 0.044261493 0.015337957 0.08915584
0000a0 23 46 90 3c 12 3d 1e bd b4 b5 fc 3c f8 b4 87 bd
       0.017611569 -0.03863246 0.030848362 -0.06626314
0000b0 fa 6e df bc 4f fd 6e 3d 5d 0b 00 3d 64 31 8d bd
       -0.027274597 0.058347043 0.031260837 -0.06894186
0000c0 db bd 96 bc 4b d3 a6 3d 08 d5 59 bd 38 c4 a4 bd
       -0.018401077 0.0814577 -0.053181678 -0.08045238
0000d0 77 ae 63 3c fd 15 b1 3c 67 44 45 3d e0 d0 66 bd
       0.013896576 0.02161693 0.048160937 -0.056351542
0000e0 aa 32 47 bd fc 1a b7 bc df 7f 7e bc 94 09 ad bd
       -0.0486323 -0.022351734 -0.0155334165 -0.084490925
0000f0 11 84 98 bc c6 f4 fb bc f3 2f 2e bd 2e 8b a8 bd
       -0.018617662 -0.030756366 -0.042526197 -0.082296714
000100 6a 37 eb 3c 96 e8 22 3d 6c 7c af bb 93 8a c1 3c
       0.028712947 0.039772592 -0.0053554084 0.023625648
000110 b7 fc 4e bc 5d 0c 86 ba 23 0f 78 3c 76 56 a6 3d
       -0.012633494 -0.0010227073 0.015140328 0.0812196
000120 34 43 b3 3d 01 5b 89 bd 87 6f 55 bd 08 28 95 bb
       0.08753052 -0.06706811 -0.052108314 -0.0045518912
000130 84 ac c0 3c d1 78 d7 3b 23 a2 2f bd a4 5e 83 3d
       0.023519762 0.0065756817 -0.042879235 0.06414536
000140 73 bc 27 bd 47 09 89 3c d0 4a 8f b9 79 0a 90 bd
       -0.040951204 0.016728057 -0.00027330825 -0.070332475
000150 51 d7 30 3d 12 8b 28 3c 38 90 40 bd 28 23 7c bd
       0.04317409 0.010287063 -0.047012538 -0.061556965
000160 d5 f0 30 3d 52 55 78 bd 01 74 23 3d 94 fa 67 3d
       0.043198425 -0.060628243 0.03990555 0.056635454
000170 d2 d0 45 bd 17 00 2c bd 11 fe 50 3d b7 9e fa 3b
       -0.04829485 -0.041992273 0.051023547 0.007648315
000180 55 52 91 bd ac 05 1d 3d 68 63 68 3d 75 31 70 bd
       -0.07095782 0.038335487 0.056735426 -0.058640916
000190 1a 3f 55 bd d9 01 9a bd f3 50 af 3d 6d 25 86 bd
       -0.05206213 -0.07519884 0.08560362 -0.06550107
0001a0 59 66 79 3d 5f ae 97 bd 7b ef 32 bc 21 6a 36 3d
       0.060888622 -0.074063055 -0.010921354 0.044534806
0001b0 10 3f 87 3d b1 26 ce bc 74 ad 49 3d 4a ab 11 3d
       0.06603825 -0.025164934 0.049237683 0.035563745
0001c0 fe 7a b3 3d 1a 26 36 3d e3 2b 7c bd 56 03 6e 3d
       0.08763693 0.04446993 -0.06156529 0.05810865
0001d0 71 8d 6c 3d e1 f8 69 bc 94 4e a1 3d b5 b2 bc 3a
       0.057752077 -0.014280529 0.07876316 0.001439652
0001e0 c7 d7 30 3c 58 57 8c bc 77 62 fb bc b0 48 a6 3c
       0.010793633 -0.017131492 -0.0306866 0.020298332
0001f0 5a 26 9d 3c da 93 80 3d 7f 91 81 3d 60 c6 47 bc
       0.019183327 0.062782004 0.06326579 -0.012193292
000200 03 35 82 3b a8 59 73 b8 e2 a0 62 3d 46 7a 55 3c
       0.0039736046 -5.8019214e-05 0.05532921 0.013029641
000210 99 de 0f 3d c3 9c 8e bd 4b 3a a5 bb 06 74 af 3d
       0.035124395 -0.06963494 -0.0050423495 0.085670516
000220 00 a4 b3 ba c0 ee 11 bc 36 92 1d bd da 7c 84 3d
       -0.0013705492 -0.00890702 -0.038469516 0.06469126
000230 90 10 5e 3d 57 4e 0a 3d a6 18 b5 3d a5 08 99 3c
       0.054215014 0.033766117 0.08842592 0.01868088
000240 b4 12 a9 bd 11 7b 4a bd 10 14 d3 3b a5 48 4e 3d
       -0.082555205 -0.04943377 0.0064416006 0.050362248
000250 7b 8b 88 bd 81 34 a1 3d df 42 31 bd c2 c8 47 3d
       -0.06667229 0.078713425 -0.043276664 0.048775442
000260 d9 3d 3c 3d bd 39 69 3d 50 97 50 bd a6 06 53 bc
       0.04595742 0.05693983 -0.050925553 -0.012880003
000270 b4 84 1c 3c bd 84 ac bd 2e f5 ce bc 57 67 b1 3d
       0.009553123 -0.08423755 -0.025263395 0.08662289
000280 f0 81 4a bd 35 59 76 3d 68 f2 af bd 60 df 90 3c
       -0.049440324 0.06014367 -0.08591157 0.017684639
000290 b5 c0 89 3d d5 39 2a 3d d2 3a 49 3d d7 97 d1 bb
       0.06726209 0.04155906 0.04912836 -0.0063962745
0002a0 7a 3a 05 3d 18 d8 76 3d 1d d8 4b bd d4 db 43 bd
       0.03252647 0.060264677 -0.04976665 -0.047817066
0002b0 5c 9c 2f bd e7 16 87 3d f5 91 88 bc 7a 80 7d 3d
       -0.042873725 0.06596165 -0.01667116 0.061890103
0002c0 2a e8 14 bd 9f 0a c6 bc 8c be 6f bc 51 d7 74 bb
       -0.03635422 -0.024174986 -0.014632832 -0.0037359784
0002d0 53 87 3b bd db 21 75 bb 38 f2 df bc 51 8a 64 bd
       -0.045783352 -0.0037404213 -0.027337179 -0.05579597
0002e0 8f 95 85 3d 6b 6b 85 3d bc c1 3a bd 00 0d 1e bd
       0.06522667 0.06514629 -0.045594916 -0.038586617
0002f0 b5 a4 29 bd 52 2c 28 3c cc 86 9d 3d 01 b9 81 bc
       -0.041416842 0.010264473 0.07691726 -0.015835287
000300 06 3b 0f bd b9 d4 6e 3d 3c 4a 20 bd 05 2c 8f 3c
       -0.0349684 0.058308337 -0.039133295 0.017477045
000310 07 35 a7 3d 19 96 91 3d 87 2f a9 bd 50 ca 8a bc
       0.08164411 0.07108707 -0.08261018 -0.016942173
000320 ad 2d 07 3d 8e 03 f3 bc dc 83 65 3d 6a a3 a1 bc
       0.033002544 -0.029664781 0.056033954 -0.019731242
000330 86 7d 0d 3d d1 00 92 3b e1 9a 3f 3d 2d 79 9d 3d
       0.034543537 0.0044556637 0.046778563 0.07689128
000340 45 9f 10 3d ae 68 f5 3c 24 b2 3b 3d b4 fe 80 bc
       0.03530814 0.029957142 0.045824185 -0.015746452
000350 71 3c 7d bd 61 05 62 3d f3 d3 03 bd a4 8b 97 bd
       -0.06182522 0.05518091 -0.032184552 -0.07399681
000360 f4 0a dd bc c3 40 44 3d ba 65 4b bb 0b af 43 3c
       -0.026982762 0.047913324 -0.0031035976 0.011943589
000370 26 72 71 3b 83 9b 7b 3d f2 37 b0 bc 43 2c 97 bc
       0.003684172 0.061427604 -0.021511052 -0.018453723
000380 77 5b 1f 3c 19 7c 35 bd 18 1e 60 bd bd 3b a7 bd
       0.009726397 -0.044307802 -0.0547162 -0.08165691
000390 f2 b5 a9 3c d4 b6 b6 3d 04 01 8e 3d 7a 99 12 3d
       0.020716641 0.089215904 0.069337875 0.035790898
0003a0 fd 07 4c 3c d8 23 a3 bb 7c 93 20 bd 0c 43 8d 3c
       0.012453076 -0.004978638 -0.039203152 0.017243885
0003b0 6c f5 16 bd a2 24 bf 3c 19 d2 56 3d 76 c1 46 3d
       -0.036855146 0.023332898 0.05244646 0.048524342
0003c0 90 a2 82 3d e0 f6 92 bd 92 10 36 3d cf 6b a8 bd
       0.063786626 -0.07175994 0.044449396 -0.08223688
0003d0 58 7b 80 bd 38 fc a2 3d d4 12 3d 3c eb fb 11 bd
       -0.06273526 0.07958263 0.0115401335 -0.03564064
0003e0 e6 f3 05 bd 7d 39 32 3c 8c b5 92 bc f0 00 a0 bd
       -0.032703303 0.010877964 -0.017908834 -0.07812679
0003f0 2c d7 61 3d fd fb 11 3d e1 a3 99 3c 1f ad b7 bc
       0.055136845 0.035640705 0.018754901 -0.022421418

convs.1.nn.3.bias f4 [128]
000000 72 5a 1b bc e6 10 c5 bc 4b a2 78 bb 5a c8 23 bd
       -0.009482013 -0.02405591 -0.003793853 -0.039985992
000010 90 5f 11 bd e3 3f 1a bd e6 4a d7 bc 55 63 13 3d
       -0.035491526 -0.037658583 -0.026280832 0.035983402
000020 2a 30 72 bd 56 f7 1b 3c ac 14 03 bd c5 19 98 3c
       -0.059127964 0.009519419 -0.032002136 0.018566975
000030 de fb fd 3c 9c 51 8f 3b f8 0f 72 bd fd ce a6 bc
       0.031003889 0.0043737423 -0.05909726 -0.020362372
000040 b9 07 9a 3d 0f 85 93 3c 9a 86 a1 bc 01 71 0e 3d
       0.07521004 0.018007783 -0.019717503 0.034775738
000050 17 89 24 3c 97 9b 83 3d 7f 24 01 bb 37 46 b4 bd
       0.01004245 0.06426161 -0.0019705591 -0.08802455
000060 0d 43 11 bd 93 89 8f 3d 2e 86 97 bd db b4 ae bd
       -0.035464335 0.07008662 -0.073986396 -0.08530589
000070 b5 91 3e bd e1 18 28 3d 1b 4d 04 bd 79 19 99 bd
       -0.046525676 0.04103935 -0.032300096 -0.07475562
000080 db 5f c0 3c 5a 9b 06 bd 48 ca 80 b9 6e 6c 06 bc
       0.023483207 -0.032863 -0.00024564774 -0.008204563
000090 bb d1 09 bc 2e 3e 43 3d 86 20 b3 3c 43 6a 10 3c
       -0.00841182 0.04766672 0.021866094 0.008814397
0000a0 06 d1 af 3d ce 1f b1 3d 79 c2 b6 bb fe 1f c5 bc
       0.0858479 0.086486444 -0.005577382 -0.024063107
0000b0 f1 a3 01 3d 6f 37 51 bd 9b 5e a5 bc 7c 3e 84 bd
       0.031650487 -0.051078256 -0.020186713 -0.064572304
0000c0 f0 e8 ac bd 7b 2c 7a bd fa 01 94 3d c8 cb 5c 3d
       -0.08442867 -0.061077576 0.072269395 0.05390528
0000d0 2a 8d 36 bd 92 c2 45 bc 76 12 9a bb d9 4e cc 3b
       -0.04456822 -0.012070315 -0.0047019077 0.0062349853
0000e0 b8 3e 5f bd b0 91 aa bc 00 fe 44 bd 80 e1 8a 3d
       -0.054503173 -0.020821422 -0.048093796 0.06781292
0000f0 43 b5 45 3d 3f ee fb bc 85 87 6b 3d a2 cd 04 3c
       0.048268568 -0.030753253 0.05750229 0.008105667
000100 23 4e 51 3d 31 e0 2a bd d9 83 25 bc e2 fe 12 3d
       0.051099908 -0.04171771 -0.010102236 0.035887606
000110 26 81 af 38 85 33 97 bd c1 1f aa bd 42 14 af 3c
       8.368706e-05 -0.073828734 -0.08306838 0.021371964
000120 b2 3a 8a 3d 00 92 4c 3d 00 bb 6c bd 2c 5e b4 bc
       0.067494765 0.049943924 -0.057795525 -0.02201756
000130 92 af 52 bd f7 39 84 3d 99 83 ab 3d 37 3e 1d 3d
       -0.05143697 0.064563684 0.0837471 0.03838941
000140 17 4d 99 bb 23 58 3c 3c dc 58 b4 3c c0 cb 8c bd
       -0.0046783793 0.011495623 0.022015028 -0.068748
000150 0f f9 42 bd 31 db eb bb c1 b9 a9 3d 43 53 10 bd
       -0.047600802 -0.0071977605 0.08287383 -0.035235655
000160 31 19 85 bb 7f 46 41 3c be 82 48 3d de 93 e4 bb
       -0.004061841 0.011796593 0.04895281 -0.006975635
000170 63 76 16 3d bb f4 a5 bc 23 85 02 3b ba 7b 88 3d
       0.036733996 -0.020258298 0.0019915781 0.06664224
000180 39 5b 9c 3d e5 65 35 bd 4e 3b 89 bc 86 1e de 3a
       0.07634587 -0.044286627 -0.016751911 0.0016946353
000190 48 77 13 3d 3a af a8 3d 5e 65 a7 3d 20 0b 84 bd
       0.036002427 0.08236547 0.08173631 -0.064474344
0001a0 a4 5d 2b bd 2a d8 04 bd f8 3c bf bc 43 c0 98 3d
       -0.04183735 -0.032432713 -0.023344502 0.07458546
0001b0 ba 8c 3a 3d 57 eb 0f 3c 97 3c 91 bd 65 4e 89 bd
       0.045544364 0.008784137 -0.07091635 -0.06704406
0001c0 87 0e 80 bd e6 d5 fa 3c 2e 88 96 bc 8f 9f 9c 3b
       -0.06252771 0.030619573 -0.018375482 0.004779763
0001d0 9b c1 b4 bd 2b 2a ad 3d 35 25 39 3d a4 99 0e bd
       -0.0882599 0.084553085 0.0452015 -0.034814492
0001e0 ba 55 e3 3c 57 b4 e8 bc c3 1b 5b bc e4 0c ea 3c
       0.027750839 -0.028406305 -0.013373318 0.0285706
0001f0 4e 8f a2 3b 16 31 92 3d c7 4b 61 3d e0 fc f2 bc
       0.004960931 0.07138269 0.055003908 -0.029661596

convs.2.nn.0.weight f4 [128, 128]
000000 ab da 05 3d 13 69 42 bc 93 92 f6 3b ee ff 6e bd
       0.03267924 -0.011865872 0.007524797 -0.058349542
000010 05 1c 1e bd ed e9 b9 3c cb 2e 97 3d d5 d8 a7 bd
       -0.03860094 0.022694552 0.07381972 -0.08195654
000020 e3 dd b0 3d 9c 41 1e 3d a1 05 a2 bd f9 a6 a1 3c
       0.086360715 0.03863679 -0.0791123 0.01973294
000030 d4 4c a0 3d b4 84 71 bd f8 6d 5f bd b9 d4 c6 bc
       0.07827154 -0.058964446 -0.054548234 -0.024271356
000040 8f 8f 88 bd 2c 96 58 bc 44 d0 4a bd ed cc 5e bd
       -0.06668007 -0.0132193975 -0.049515024 -0.05439465
000050 65 38 0b bd 52 98 ba 3c 7a b6 42 bb bb 20 00 3d
       -0.03398933 0.02277771 -0.0029710815 0.031281214
000060 7c 4d a4 bc 00 46 2f bd b1 8b 81 3d 2e ce 1a bd
       -0.020056479 -0.042791367 0.06325472 -0.037794285
000070 0b cf 14 bd ba e2 b2 bc 66 89 5a bd 30 93 10 3d
       -0.036330264 -0.021836627 -0.05335369 0.03529662
000080 a4 2f c0 bc 60 15 7e bd 7a 79 8f bd 79 d5 8b bd
       -0.023460217 -0.062032104 -0.07005592 -0.06827826
000090 9e 7b 94 3b d6 f6 a3 bd db ea 02 3d a6 04 a8 3d
       0.004531338 -0.080060646 0.031962257 0.082040116
0000a0 fa f0 a8 bd 1c 1b 74 bd db db 33 bd 72 59 73 3c
       -0.08249088 -0.059596166 -0.043910842 0.014852868
0000b0 3d 30 0b 3d d7 c9 c8 bc bd 19 85 bd 9e 77 ca 3c
       0.03398155 -0.024510307 -0.0649905 0.024715241
0000c0 8c c1 c0 bc e8 66 87 bd 97 ec 1a 3d 28 dd 67 3c
       -0.02352979 -0.06611425 0.037823286 0.014151849
0000d0 72 94 78 3c f4 16 30 bd f7 1b a4 3c b8 fb 1f 3d
       0.015172111 -0.04299064 0.020032866 0.039058417
0000e0 ff ee 81 3c 77 17 85 3b 10 f1 2c 3d f2 50 25 3b
       0.015861033 0.004061635 0.042222083 0.002522525
0000f0 bf 28 01 bd 0c 9a 9a bd 01 dc 57 bd 91 0e 8a 3d
       -0.031533 -0.07548913 -0.052700046 0.067410596
000100 61 aa 7c bd 35 94 7d bd 25 c0 4d bd 01 a1 ab bd
       -0.061685923 -0.06190892 -0.05023207 -0.083803184
000110 be db 76 bd 66 70 1a bc 23 fc 88 3d e6 bf 83 3c
       -0.060268156 -0.009426212 0.06688716 0.016082715
000120 22 33 fc bc 3d 56 c5 bc 5e 21 b1 3d 96 1b cb b9
       -0.0307861 -0.024088973 0.086489424 -0.0003873973
000130 16 91 97 3d f2 34 ae bd e2 7c fd bc 15 31 e8 3c
       0.0740072 -0.08506192 -0.030943338 0.028343717
000140 2e a2 30 bd ee 89 b5 3d 5f 71 90 3d 23 6b 2b bd
       -0.043123417 0.088641986 0.07052874 -0.04185022
000150 9d 55 c7 bc e3 99 b4 3d e6 1b ae 3d bb 31 27 3c
       -0.024332816 0.08818414 0.08501415 0.010204728
000160 23 c5 8d 3d ac 15 aa 3d 1b 68 8e bd 18 e6 85 bd
       0.069223665 0.08304915 -0.0695345 -0.065380275
000170 5b 8e 8a bd 03 30 88 3d f5 94 08 3c 03 fb 84 3d
       -0.067654334 0.066497825 0.008336295 0.06493189
000180 9d a5 f8 bc 20 40 61 3b 8d 67 88 3b 99 3e 37 3d
       -0.030352408 0.0034370497 0.004162735 0.044737432
000190 e9 37 a6 bd 68 b7 0a 3c 5c 8b c5 bc 76 76 8d bd
       -0.08116133 0.008466579 -0.024114303 -0.0690736
0001a0 59 35 5a 3d 42 5f e8 bc 2b 27 9e 3d a8 f9 dc 3c
       0.053273533 -0.028365735 0.077223144 0.026974514
0001b0 06 7e a9 bd de ef 36 3d 64 5b bc 3c 56 ee 69 bd
       -0.0827599 0.04466235 0.022992797 -0.05711206
0001c0 c2 1f 31 bd e7 71 c8 3b e1 ce a9 bd 95 52 b6 3c
       -0.043243177 0.006117094 -0.08291412 0.022256175
0001d0 e5 bb 90 3d f8 03 a0 3d 73 cd 4c bd 4c 09 b2 bd
       0.07067088 0.07813257 -0.05000062 -0.086931795
0001e0 d9 1a 21 bd df 0f 37 bd 21 71 a7 3d 51 d6 d6 3a
       -0.039332245 -0.04469287 0.081758745 0.0016390776
0001f0 38 04 97 3d 8c e9 13 bd 0b 8a 80 bc 7f d8 9f 3c
       0.073738515 -0.0361114 -0.015690824 0.019512413
000200 a6 4b 96 bd 7a 41 b4 bd 54 ec 8f 3d d2 64 ea 3c
       -0.073386475 -0.08801551 0.07027498 0.028612528
000210 06 ef 81 bd 47 b8 dd 3a 28 5a 50 3d 08 23 b1 3d
       -0.06344418 0.0016915881 0.05086723 0.0864926
000220 28 48 12 bd 1b 01 74 3c 25 56 9d bd f9 bd 25 bc
       -0.035713345 0.014892842 -0.076824464 -0.010116094
000230 74 05 4a bd e9 d7 a0 3d 0e bd 7c 3d fe 46 1e 3d
       -0.049321607 0.078536816 0.061703734 0.038641922
000240 d5 81 c7 bc d9 0a 8a 3d fe a4 38 bd e1 31 79 bc
       -0.0243539 0.0674035 -0.045079224 -0.015209646
000250 18 23 51 bd 82 e2 34 bd 87 00 0b 3d 3a 25 61 bd
       -0.05105886 -0.044161327 0.03393605 -0.054967143
000260 e2 87 ae bd 48 49 9b bd 91 d7 4d 3d 2b 06 13 3d
       -0.08522011 -0.07582337 0.05025441 0.035894554
000270 c5 6d b2 3d 3b e1 7e bd 81 da 1b bd 00 d9 ee b9
       0.08712343 -0.062226515 -0.03805018 -0.00045556575
000280 90 33 81 3d 72 24 25 3b 6f e2 ae 3d 25 f7 73 bd
       0.06308663 0.0025198725 0.085392825 -0.059561867
000290 d7 9c 94 bd d1 e1 dd 3c cd dd 9f bc 16 e4 8c bd
       -0.07256477 0.027085217 -0.019514943 -0.068794414
0002a0 a7 f1 c0 bb 25 9a ed 3b 6b ec ac bc a0 15 ab bd
       -0.005888182 0.0072510415 -0.021108827 -0.08353734
0002b0 45 3a 08 bd 6e 61 66 3d 8b 96 7c 3d ec ba 2c bc
       -0.033258695 0.05624526 0.061667006 -0.0105426125
0002c0 2b 1d b7 bc 68 ce 0c 3d b7 a5 a7 bb 99 a6 6c bc
       -0.022352776 0.03437653 -0.0051161903 -0.014444017
0002d0 0d e7 9c 3d 2e 4b 09 3d 02 50 b4 3d 9b 22 49 bd
       0.07661257 0.033518963 0.08804323 -0.049105268
0002e0 b4 86 ae bd ae a6 a6 3b 2d 2f 17 bc 8a ce a0 bd
       -0.08521786 0.0050857877 -0.009227556 -0.07851894
0002f0 1f 99 a3 bd 6a 90 ac 3d c2 9b 96 bb 67 7f 6d bd
       -0.0798819 0.08425982 -0.0045962045 -0.05798283
000300 25 b3 a5 bc 7b 9b 18 bc c0 f4 a2 bd 30 46 1d 3d
       -0.020227024 -0.009314413 -0.079568386 0.038397014
000310 81 37 4c bd 88 00 92 bd de 7e 1e bd db 45 4f 3c
       -0.04985762 -0.071290076 -0.03869521 0.012650932
000320 be b2 ef 3c d3 41 81 3c 7b c6 63 bb 07 e9 63 3d
       0.029260036 0.015778458 -0.0034755755 0.055642154
000330 ed 3b a6 3d 21 41 70 3d 63 b9 60 bd 3e 81 36 bd
       0.08116899 0.05865586 -0.0548643 -0.04455685
000340 0b 34 af 3c 0f 5a 80 bd da 88 41 3c 93 c8 3b 3d
       0.02138712 -0.06267177 0.011812413 0.04584558
000350 f8 e7 3d bd ab f0 b0 bd 94 ae 2c 3d 96 08 9b 3d
       -0.0463638 -0.08639654 0.04215868 0.07569997
000360 66 28 85 bd 99 c8 92 3d 82 e0 cd 3c 57 12 74 bc
       -0.06501846 0.07167167 0.025131468 -0.014896951
000370 c1 76 66 3d 09 44 8d bd 4f 8a ae bc 52 28 6f bc
       0.056265596 -0.06897742 -0.021306185 -0.014597015
000380 03 f7 8b bd 68 e0 52 bc 13 78 9a bd 6a 1d 26 bd
       -0.06834223 -0.012870885 -0.075424336 -0.040555395
000390 4e 4d 7d 3c db 16 a4 bb de 9b ad 3d 5b 38 84 3d
       0.015460325 -0.0050076074 0.08476995 0.064560615
0003a0 be 12 51 3d 73 7a 81 bd 14 f3 e1 bc 85 a9 4e bc
       0.051043265 -0.063221835 -0.027581729 -0.012613659
0003b0 6d c0 a5 3d f6 98 54 bd 77 0c 4d bd c9 7e 36 bd
       0.08093343 -0.051903687 -0.050060716 -0.044554505
0003c0 b3 c4 92 bd 21 c3 3d bd a1 a9 b0 bd 85 3c dd bc
       -0.07166424 -0.046328668 -0.08626104 -0.027006397
0003d0 a5 5c 44 bd c0 c7 82 3c 9c ee a2 3d 89 2a 2a 3c
       -0.047939915 0.015964389 0.079556674 0.010386118
0003e0 ef a2 b8 3c 38 74 41 bd 0e 03 28 3d 9c 13 4e 3d
       0.02253863 -0.047229975 0.04101854 0.05031167
0003f0 ce 4e 89 bd 06 d3 97 3d 34 1f b0 bd 1d 15 5c 3c
       -0.06704484 0.074132964 -0.085997015 0.013432768

convs.2.nn.0.bias f4 [128]
000000 20 b3 ce ba e0 7d b0 bd 83 01 ab bd 3e 1b 2d bc
       -0.0015769936 -0.08617759 -0.08349898 -0.010565577
000010 4b 20 04 3d c0 ad 00 3c 04 48 18 3d a1 e2 a1 bd
       0.03225736 0.007853925 0.037178054 -0.07904554
000020 08 1d a2 3a 93 08 2b 3d a4 6c 0c 3d 2b 20 81 3c
       0.0012368271 0.041756224 0.034283295 0.01576241
000030 c0 80 9b bd 29 1a 4e 3d 47 bd 57 3d fe b6 3a bd
       -0.075929165 0.050317917 0.052670743 -0.04558467
000040 ef 35 41 bb 87 98 95 bd 97 25 8f 3b 46 dc 47 3d
       -0.002948161 -0.07304483 0.0043684947 0.048794053
000050 97 f0 05 bd 4d ab fd 3c dc 14 2c bc ed 82 23 bd
       -0.032700147 0.030965472 -0.01050302 -0.039919782
000060 3a 62 cb 3b 7f b6 ac bd 00 ee 9f bc 7c 12 97 3d
       0.006206778 -0.08433246 -0.019522667 0.073765725
000070 1f 01 db bc c7 5b d7 bc 8f 49 89 bd 30 13 3c 3c
       -0.026733933 -0.02628888 -0.06703483 0.011479184
000080 26 87 5a bc 85 83 39 bd 52 cc 26 bd 9c fd 5c bd
       -0.013337886 -0.045291442 -0.0407222 -0.0539528
000090 fd 69 dd 3b 90 17 82 bd 5f 85 95 bd 94 d3 d9 bc
       0.0067570196 -0.063521504 -0.07300829 -0.026590146
0000a0 81 51 1e bd f1 cc 50 3d c6 a7 46 3d 21 82 e9 bc
       -0.038651947 0.050976697 0.048499845 -0.028504433
0000b0 eb 18 4f bd 63 2d f4 bc 53 59 8e bd 98 62 b4 bc
       -0.050560873 -0.029806798 -0.06950631 -0.02201967
0000c0 da 5e 75 bd 08 68 a0 bd 0c 79 d0 3c 83 d9 af bd
       -0.05990491 -0.078323424 0.025448345 -0.08586409
0000d0 cf f0 03 3d c8 d7 ba 3c ce 92 64 3d d7 69 87 bd
       0.032212075 0.02280797 0.055804066 -0.06611984
0000e0 64 fd 9d bc ed 74 d5 3c dc 4e 99 3d 27 37 23 bd
       -0.019285865 0.026056731 0.07485744 -0.03984752
0000f0 cf aa 6f bd 26 1b 79 bd 49 e2 af bd 5b d5 6f 3b
       -0.058512505 -0.060816906 -0.08588082 0.0036595676
000100 1d 5d 12 3d 4a 4b 2b 3d 28 b7 0d bd 12 64 12 bd
       0.03573333 0.041819848 -0.0345985 -0.035739966
000110 d3 4d 94 bd 3f ac 16 bd 39 38 61 3c 9b e0 22 3c
       -0.07241406 -0.03678536 0.013746315 0.009941245
000120 e5 5e 3c bd 41 0a 6c bd af 4f c5 bb 71 57 9d 3d
       -0.045988936 -0.057626966 -0.006021462 0.07682694
000130 f9 c3 21 3c 83 40 78 3c 28 b7 b8 bc 06 87 6f bd
       0.009873384 0.0151521 -0.022548273 -0.058478378
000140 6c ba a9 3d 99 76 39 3b 2d dd 6b 3d fe e5 4b 3d
       0.0828751 0.002829945 0.057583977 0.049779885
000150 46 f0 46 3d 1b 6d 24 3d 2f 39 c4 bc 8b 29 88 3c
       0.048568986 0.040143114 -0.023953049 0.016621372
000160 cc 9e 00 3d 50 03 a3 bc c2 e1 30 bc e7 d3 a1 3d
       0.03140144 -0.01989904 -0.010796012 0.07901745
000170 36 5e aa bd 5c 6e 97 3d 69 ac 5a 3d 50 b9 6f bd
       -0.083187506 0.07394096 0.05338708 -0.058526337
000180 a2 f3 31 3d 14 f4 9a bd cb 1d 2b 3d bc f4 56 bd
       0.043445237 -0.075660855 0.04177646 -0.05247949
000190 f8 6b 8d 3c e5 24 a0 3d e6 dc 93 3d 7a 95 a4 bc
       0.017263398 0.07819537 0.072198674 -0.020090807
0001a0 68 8b 10 3c da e8 a4 bd 68 13 ac 3d f1 96 26 3b
       0.0088223 -0.080522254 0.08402139 0.0025419558
0001b0 64 9e 93 3d 9a e2 fa 3c 77 01 1e bd 75 a3 35 bc
       0.07207945 0.03062563 -0.038575616 -0.0110863345
0001c0 49 d8 5f 3c 86 e0 6c bd ac a8 6b 3d a1 29 49 3d
       0.013662406 -0.05783131 0.057533905 0.049111966
0001d0 02 f4 54 3d bc 77 48 bd d3 b0 a4 3d dd 94 33 bd
       0.051990516 -0.048942313 0.08041539 -0.04384314
0001e0 a2 61 bc 3c cf 3b 8d 3d 98 2a 91 3d ff 1f 32 3b
       0.022995774 0.06896173 0.07088202 0.0027179716
0001f0 bd c9 b1 bc a8 16 9e 3d 9a 12 46 3d 9c cb 04 3d
       -0.021702642 0.07719165 0.048357584 0.03242074
